exercise-4-rnn/char-rnn.pytorch-master/tinyshakespeare.pt (torch, 568607 bytes, 11 tensors)

weight f4 [100, 100]
0.6895801 -0.34819672 0.610081 -0.4340219 1.1811944 -1.080975 0.58978724 1.0815877
0.13906188 -0.102460295 1.6085086 -0.47528258 -0.7946955 -0.7449783 1.4764757 1.5843437
0.42140827 -0.19317384 1.4646926 -1.3857515 -0.77664495 -0.03293013 1.6728933 3.1700425
0.7641417 -0.5169 1.091389 -0.8094467 1.5280273 -0.28451836 0.73409766 1.5405865
-0.7014621 -0.55450803 0.23742121 0.5738726 1.2762358 -0.8693158 0.5816297 -0.09979733
0.19975063 -0.017408837 1.2849697 -2.0633495 0.5838728 -0.20203868 0.18532683 -0.19536135
-0.7959504 -0.9200102 -0.5330887 -0.43528643 0.43523303 0.012208633 -1.1241248 0.3253533
1.0261146 1.1191078 -0.05072021 0.40134174 -1.1773016 2.0074666 1.4570496 0.84841084
0.3729841 -0.9814981 -0.06932374 0.57966065 -0.31348318 0.83352906 -0.7708866 0.6364254
-1.2635581 0.73553264 1.7277154 0.051844224 0.4910385 1.4685712 -0.040761154 -1.245385
-1.7767931 0.7245427 -1.2825007 0.52641684 0.6976545 -0.63939136 -0.16147472 1.5053931
-0.6465051 0.047879376 -0.13955373 -0.16405323 -0.09147234 2.0390494 0.6735055 0.048942085
-0.03906536 0.36509398 -1.2674336 0.5769714 1.3220328 0.50054294 1.6313767 -0.6093487
-0.7159841 0.8529309 -0.6823684 0.8806521 -1.7031407 -1.1787782 -0.095678225 -0.1911138
0.46730363 1.8121271 -0.118276715 0.86148787 -1.4010917 1.2932369 -0.60259783 -0.30442855
-0.32544744 -0.93240005 0.34161553 -0.8538738 0.65770435 -0.61192054 -0.67959106 0.95819396
0.6184913 -0.32157227 -0.7438826 -0.0032290483 0.16721286 0.52083707 1.1821399 -2.0672925
0.1228917 -1.0509346 1.3738921 0.24586146 0.045908626 -1.414579 2.6734536 -0.19145378
1.0230203 -0.20635568 1.2285914 0.21374911 0.30278745 -1.005359 -0.733487 0.04866277
-0.87645036 -0.14942937 -0.31575584 -0.11259232 -0.5188217 0.46146962 -0.57588416 0.9805813
0.31316957 -0.6631408 0.5846048 -0.59569603 0.74963105 -0.03681782 0.52145964 -1.2538502
-0.53912807 1.3045417 -0.52292293 0.31382206 -0.0052712997 -0.1923737 2.4041917 0.33737174
-0.091927774 -0.76810145 -1.0024971 0.42065904 -0.5043938 0.053582005 1.0740246 -0.31451505
-0.4577912 0.19401488 -1.2177949 0.852813 0.52845 1.1248704 -0.30321744 0.11357948
-0.63701135 0.17403683 0.36219233 0.6003712 -1.1546621 0.93715346 -1.1054416 0.7681136
0.36221802 -0.6245421 0.026951501 0.87917656 -0.20850614 0.59270865 0.21557857 -0.98756206
-0.29064408 0.4060998 0.4106682 -0.34240678 0.2435393 0.6740006 0.6786062 1.319842
-1.5462623 0.69807166 1.1953017 0.20410466 -0.6001137 0.8910696 1.7559801 0.24950288
0.26347512 1.4944946 -1.4579115 1.0034499 -0.76579374 0.4333592 0.6256235 1.9862914
-1.4796774 0.9389105 -0.5522005 1.5836878 0.5308675 1.4406649 1.8147967 -0.94115394
1.0666007 -0.40775454 0.13770163 1.4041454 -1.452822 -0.6923597 -0.0024261617 -1.4502803
0.25152224 0.33639744 -0.7866973 -0.5881359 0.30724564 0.98312294 -0.7393243 0.16412234
00000000: 5288 303f d746 b2be 452e 1c3f 1e38 debe
00000010: 6131 973f 645d 8abf 4cfc 163f 7771 8a3f
00000020: 3d66 0e3e b4d6 d1bd 9ce3 cd3f 3d58 f3be
00000030: 2a71 4bbf e6b6 3ebf 28fd bc3f c6cb ca3f
00000040: d3c2 d73e 5dcf 45be 0c7b bb3f 4e60 b1bf
00000050: 34d2 46bf bee1 06bd 5e21 d63f fae1 4a40
00000060: ca9e 433f 8f53 04bf a2b2 8b3f e637 4fbf
00000070: 6696 c33f 64ac 91be d3ed 3b3f f031 c53f
00000080: 0593 33bf 3df4 0dbf 8c1e 733e 51e9 123f
00000090: b25b a33f 7b8b 5ebf afe5 143f 8b62 ccbd
000000a0: 6e8b 4c3e fa9c 8ebc e379 a43f eb0d 04c0
000000b0: b078 153f 3ae3 4ebe 51c6 3d3e ce0c 48be
000000c0: 68c3 4bbf ca85 6bbf 8078 08bf dddd debe
000000d0: ddd6 de3e b806 483c 52e3 8fbf b594 a63e
000000e0: b957 833f ed3e 8f3f ffbf 4fbd aa7c cd3e
000000f0: d2b1 96bf 557a 0040 9a80 ba3f 7431 593f
00000100: c6f7 be3e 7643 7bbf 9bf9 8dbd a464 143f
00000110: de80 a0be 2962 553f d358 45bf c6ec 223f
00000120: 46bc a1bf de4b 3c3f c725 dd3f 9c5a 543d
00000130: 6669 fb3e 24fa bb3f 2bf5 26bd c768 9fbf
00000140: f56d e3bf a17b 393f fc28 a4bf 41c3 063f
00000150: 7c99 323f 27af 23bf a159 25be b9b0 c03f
00000160: 5c81 25bf 2a1d 443d 2ce7 0ebe 92fd 27be
00000170: da55 bbbd c97f 0240 db6a 2c3f 7f77 483d
00000180: 0003 20bd 99ed ba3e 443b a2bf 66b4 133f
00000190: 5f38 a93f 9523 003f f4d0 d03f 47fe 1bbf
000001a0: bc4a 37bf ae59 5a3f b2af 2ebf 6b72 613f
000001b0: 8400 dabf 34e2 96bf f2f2 c3bd 56b3 43be
000001c0: 6c42 ef3e c8f3 e73f 103b f2bd 788a 5c3f
000001d0: f956 b3bf c988 a53f da43 1abf 0fde 9bbe
000001e0: 0ca1 a6be c5b1 6ebf 3be8 ae3e 7997 5abf
000001f0: 505f 283f d3a6 1cbf aef9 2dbf 334c 753f
00000200: 7255 1e3f 1fa5 a4be 176f 3ebf 719e 53bb
00000210: d939 2b3e 9455 053f 5c50 973f 854e 04c0
00000220: a5ae fb3d 0685 86bf b2db af3f 1bc3 7b3e
00000230: af0a 3c3d ed10 b5bf dd19 2b40 760c 44be
00000240: 54f2 823f e74e 53be 7c42 9d3f 0ce1 5a3e
00000250: f506 9b3e 9baf 80bf cec5 3bbf 9d52 473d
00000260: 0d5f 60bf 0304 19be c0aa a1be cd96 e6bd
00000270: 80d1 04bf bf45 ec3e 256d 13bf 6007 7b3f
00000280: c357 a03e 98c3 29bf a9a8 153f 897f 18bf
00000290: d2e7 3f3f 48ce 16bd 617e 053f 2a7e a0bf
000002a0: 4c04 0abf 39fb a63f 47de 05bf 49ad a03e
000002b0: deba acbb 9cfd 44be 47de 1940 fdbb ac3e
000002c0: a144 bcbd 4ca2 44bf d351 80bf 9f60 d73e
000002d0: f41f 01bf ce78 5b3d a379 893f 1e08 a1be
000002e0: 9c63 eabe d6ab 463e b4e0 9bbf f451 5a3f
000002f0: 8048 073f c1fb 8f3f 513f 9bbe 5c9c e83d
00000300: 2d13 23bf b636 323e 4671 b93e edb1 193f
00000310: f8cb 93bf 4ae9 6f3f 1c7f 8dbf 18a3 443f
00000320: a474 b93e fee1 1fbf 65c9 dc3c b711 613f
00000330: a282 55be c1bb 173f a1c0 5c3e ded0 7cbf
00000340: 4dcf 94be 50ec cf3e 1a43 d23e f14f afbe
00000350: 5e62 793e 4e8b 2c3f 23b9 2d3f 95f0 a83f
00000360: eceb c5bf d3b4 323f a5ff 983f d000 513e
00000370: 0da1 19bf 231d 643f f5c3 e03f af7d 7f3e
00000380: 36e6 863e 994b bf3f d89c babf 0c71 803f
00000390: 0f0b 44bf 42e1 dd3e dd28 203f cc3e fe3f
000003a0: 1266 bdbf 705c 703f 035d 0dbf 48b6 ca3f
000003b0: efe6 073f b567 b83f 424b e83f 77ef 70bf
000003c0: 5f86 883f 34c5 d0be a801 0d3e 09bb b33f
000003d0: 12f6 b9bf 7c3e 31bf 3d00 1fbb c9a2 b9bf
000003e0: 86c7 803e 493c ac3e ff64 49bf 1390 16bf
000003f0: 4d4f 9d3e f2ad 7b3f 5b44 3dbf b00f 283e

weight_ih_l0 f4 [300, 100]
-0.16932811 -0.07388262 -0.40488905 -1.0185049 0.040875476 -0.664997 -0.5880614 0.392808
-0.22155401 0.51854163 -0.089906044 0.27751365 0.19857703 0.43486565 -0.18404466 -0.12691239
-0.100652315 0.24507116 -0.26011285 -0.4699878 0.18161847 -0.16868404 -0.42468452 0.56745994
0.9308362 1.1330911 0.38983762 -0.10649835 0.22846852 0.5822057 0.41695473 -0.52689266
-0.20179671 0.53855056 0.36426884 0.29816246 -0.12456751 -0.0034138658 0.23908837 0.041320443
-0.45174003 -0.39404002 -0.33855557 -0.782939 0.22351764 0.28855166 -0.59974533 0.11210369
0.14408867 0.47664478 0.54462856 0.41310072 0.4352521 -0.29187492 -0.13123868 -0.21045922
0.08985308 0.4821612 0.27177998 0.2030374 0.8562416 0.6164295 -0.63912946 0.20623238
0.4227051 0.20705628 -0.47972047 0.25717664 0.33497643 0.52438205 -0.03729223 -0.016574448
-0.21547775 -0.18860789 -0.4155206 -0.19588958 0.44680753 0.28410324 0.13981391 0.5657651
0.38916445 -0.46701276 -0.009482598 0.303198 0.112540364 -0.554031 0.010292991 -0.39675856
0.9665232 -0.79523 -0.20028345 0.29557815 -0.48375434 -0.1321526 -0.4940044 -0.1150072
-0.19198902 -0.23655778 -0.19963823 0.07154399 0.60745156 -0.4397755 -0.2463506 -0.041813497
0.45463216 1.056217 0.30842343 -0.9725357 -0.22720161 -0.34615174 -0.092577204 -0.41500208
0.20981602 -0.87221867 0.22602718 -0.017184488 -0.643295 0.34587517 1.2174706 -0.1442718
-0.46667093 0.56881803 -0.22873147 -0.06361878 -0.3492676 -0.2603481 -0.15754193 -0.13569567
0.39142632 -0.6689198 0.33725283 0.0259398 0.22194424 -0.42646307 0.020675832 0.1294466
-0.64300704 -0.74656177 -0.087253496 0.30597866 -0.012897371 -0.26188505 -0.5102523 -0.20082875
-0.82336587 -0.08359768 -0.13370024 0.99872386 0.8776778 -0.08420523 0.63949054 -0.13169363
0.4553198 -0.60076463 0.31208777 -0.3962183 -0.3513489 0.47655952 0.5120257 0.99524885
-0.3316077 0.059200656 0.67857957 -0.45742837 0.29982975 -0.30801395 0.6013459 -0.038175542
0.24303699 0.17684945 0.3165048 0.075711966 -0.19135721 0.3552855 0.26239118 -0.23431994
0.885335 0.14655572 -0.12493732 -0.1410153 -0.28587875 -0.21164832 -0.22364196 -0.23824991
-0.047478918 -0.42315802 -0.3265167 -0.001990536 0.31482428 -0.58658344 -0.086842395 -0.22053131
-0.12230916 -0.3738731 0.20109262 0.5650612 -0.2847133 0.37660295 0.013362918 -0.41553444
0.30971414 -0.3198253 0.044756986 -0.10409088 0.28000194 -0.12009529 0.6039867 1.291422
0.71903795 -0.9220345 0.8287977 0.6129713 -0.7799836 -0.35871834 0.25579906 1.2032627
-0.5627296 0.099797934 0.41808462 -0.52787906 -0.1282668 0.9112124 0.0771592 -0.16777188
-0.49534875 0.6350129 0.027438415 -0.3176444 0.9752809 -0.27260914 -0.30985332 -0.016758597
0.29218397 -0.38975444 -0.54172075 -0.13714433 0.5025712 -0.023120198 0.07512575 -0.46043533
-0.12629847 0.5920686 -0.66058993 -0.5776085 -0.006430871 -0.42014155 -0.21973935 -0.05301741
-0.023728168 0.2542057 0.13940063 0.40357885 0.18446116 -0.6959381 -0.46085805 -0.14361651
00000000: 5964 2dbe c54f 97bd 9e4d cfbe 5e5e 82bf
00000010: 0b6d 273d 3e3d 2abf 318b 16bf 211e c93e
00000020: 0edf 62be 25bf 043f a920 b8bd 4516 8e3e
00000030: c757 4b3e b6a6 de3e 3476 3cbe 52f5 01be
00000040: cd22 cebd eff3 7a3e 832d 85be 3ea2 f0be
00000050: 31fa 393e 82bb 2cbe 4070 d9be 0e45 113f
00000060: 484b 6e3f 2109 913f cc98 c73e cf1b dabd
00000070: a7f3 693e 6f0b 153f 177b d53e 70e2 06bf
00000080: cca3 4ebe 73de 093f 7281 ba3e c0a8 983e
00000090: 401d ffbd 2abb 5fbb 95d3 743e a03f 293d
000000a0: 784a e7be 9dbf c9be 2857 adbe b16e 48bf
000000b0: cfe1 643e 0bbd 933e e988 19bf 9f96 e53d
000000c0: fb8b 133e c90a f43e c76c 0b3f f081 d33e
000000d0: 5dd9 de3e a170 95be 6f63 06be 9f82 57be
000000e0: e404 b83d d5dd f63e bf26 8b3e 09e9 4f3e
000000f0: a632 5b3f 53ce 1d3f fd9d 23bf 952e 533e
00000100: ce6c d83e 9006 543e ec9d f5be a8ac 833e
00000110: 0882 ab3e e73d 063f bdbf 18bd 23c7 87bc
00000120: 33a6 5cbe 6d22 41be 1ebf d4be 4797 48be
00000130: f5c3 e43e fb75 913e 612b 0f3e fbd5 103f
00000140: 9040 c73e 4c1c efbe e65c 1bbc c53c 9b3e
00000150: 907b e63d fad4 0dbf efa3 283c f023 cbbe
00000160: 106e 773f 3194 4bbf 1b17 4dbe 0556 973e
00000170: a6ae f7be 0353 07be 25ee fcbe e588 ebbd
00000180: c598 44be 343c 72be f76d 4cbe a885 923d
00000190: f281 1b3f 412a e1be 5543 7cbe a144 2bbd
000001a0: 8cc5 e83e 1e32 873f ade9 9d3e 1af8 78bf
000001b0: 8aa7 68be cd3a b1be 1e99 bdbd 277b d4be
000001c0: 03da 563e b949 5fbf ab73 673e 7cc6 8cbc
000001d0: fbae 24bf 8d16 b13e 14d6 9b3f fdbb 13be
000001e0: 7eef eebe 0f9e 113f 9538 6abe 904a 82bd
000001f0: 34d3 b2be 594c 85be ac52 21be cef3 0abe
00000200: 0869 c83e 543e 2bbf 67ac ac3e b47f d43c
00000210: 5a45 633e 5e59 dabe 5d60 a93c a68d 043e
00000220: 1c9c 24bf ac1e 3fbf f6b1 b2bd 3ca9 9c3e
00000230: 7f4f 53bc cc15 86be e59f 02bf 0da6 4dbe
00000240: 1bc8 52bf 4335 abbd b7e8 08be 5eac 7f3f
00000250: 7eaf 603f cb73 acbd a7b5 233f b2da 06be
00000260: ad1f e93e b6cb 19bf f8c9 9f3e 20dd cabe
00000270: 01e4 b3be 9cff f33e 1e14 033f a1c8 7e3f
00000280: 7cc8 a9be 637c 723d 64b7 2d3f 0d34 eabe
00000290: 4983 993e 01b4 9dbe cef1 193f f55d 1cbd
000002a0: b0de 783e 0618 353e eb0c a23e e00e 9b3d
000002b0: 25f3 43be fbe7 b53e 2358 863e 91f1 6fbe
000002c0: 51a5 623f b412 163e 23df ffbd 5166 10be
000002d0: b35e 92be 56ba 58be 6602 65be c9f7 73be
000002e0: 4179 42bd 2ba8 d8be 322d a7be a773 02bb
000002f0: a630 a13e 552a 16bf 6dda b1bd f6d2 61be
00000300: 3a7d fabd 4c6c bfbe 39eb 4d3e daa7 103f
00000310: f1c5 91be 1ad2 c03e 24f0 5a3c eec0 d4be
00000320: da92 9e3e 24c0 a3be 1a53 373d 992d d5bd
00000330: 6a5c 8f3e 85f4 f5bd df9e 1a3f 514d a53f
00000340: df12 383f 740a 6cbf 162c 543f b0eb 1c3f
00000350: 01ad 47bf eea9 b7be 18f8 823e 8304 9a3f
00000360: 0c0f 10bf dc62 cc3d 300f d63e 1523 07bf
00000370: 5f58 03be 3745 693f a505 9e3d 64cc 2bbe
00000380: 5a9e fdbe 3590 223f 87c6 e03c 49a2 a2be
00000390: 02ac 793f 6d93 8bbe 18a5 9ebe 5349 89bc
000003a0: 2399 953e e58d c7be 36ae 0abf 906f 0cbe
000003b0: 82a8 003f 9266 bdbc 87db 993d 2ebe ebbe
000003c0: 6354 01be cf91 173f 6c1c 29bf 27de 13bf
000003d0: 0eba d2bb cb1c d7be 5a03 61be c928 59bd
000003e0: 9361 c2bc 4027 823e 0abf 0e3e e3a1 ce3e
000003f0: 63e3 3c3e 0029 32bf 96f5 ebbe 3510 13be

weight_hh_l0 f4 [300, 100]
-0.16321476 -0.3583219 -0.57645863 -0.3532909 -0.35786313 -0.46847132 0.117352344 0.4012834
0.19542995 -0.091541655 0.09928344 -0.47649932 0.2902035 0.6440477 0.42359242 0.10037826
-0.23137718 0.19182613 -0.21727699 0.114590995 -0.061758712 -0.13321531 0.0115664285 -0.6526472
1.0200101 0.024415324 -0.32470182 0.57040757 -0.032107662 0.10721798 -0.052417476 0.7546913
0.13598095 -0.1704819 -0.40875036 -0.47003862 0.27060914 -0.02334754 0.106868535 -0.21177147
0.3367334 0.14619246 0.4263303 -0.4483527 -0.59340054 0.7933622 0.49627426 -0.48577887
-0.55385673 0.28694785 -0.286092 0.12305196 -0.9703304 -0.37463728 -0.18805726 -0.081512354
-0.31258768 0.0037565993 -0.13024123 0.5322498 1.2150062 0.4948706 -0.49458542 -0.14908387
1.0840157 0.067001 -0.061892726 -0.2861439 0.46741378 0.04355274 -0.11832955 0.6313418
-0.11631669 0.6113726 0.52025473 0.30203637 0.48757583 0.18917002 -0.86108655 -0.5578393
-0.6922826 0.11755736 -0.17128186 -0.64756876 -0.8232875 0.0846853 -0.65674 0.2721521
0.0046640737 -0.094507866 -0.06430103 -0.81523734 -0.29871556 -0.28714937 0.749427 0.49195138
0.041990988 0.101624444 -0.31622073 -0.012101242 0.09099531 -0.204253 0.50772965 0.63428307
0.62267506 0.08910769 -0.40379825 0.2478906 -0.15841413 -0.43800965 -0.076873004 0.27310058
0.17177606 0.6131345 0.29682815 -0.34877306 0.6316209 -0.2835062 -0.43716243 -0.0016758654
-1.2060165 0.108188555 -0.3263165 0.5201212 0.5345069 0.72776085 0.8271405 -0.14192188
1.0781811 -0.25414386 0.96320975 -0.5264972 0.14040914 -0.19070719 -0.8244657 -0.42424095
0.016796023 -0.4061148 -0.031297468 0.4654661 0.21677528 -0.0061750826 -0.80329204 0.5051509
-0.30786997 0.22771387 0.27019417 -0.73044163 -0.56866616 -0.19217713 0.4429371 -0.42813468
0.29282463 -0.6430975 -0.39736393 -0.30511948 -0.16532356 0.6269488 0.14293878 -0.26067504
-0.7506822 0.2852163 0.31039333 -0.26060688 0.6106091 0.03418809 0.8185934 0.39628208
-0.021491928 -0.0870221 -0.6351445 -0.27664325 0.6291176 0.40238822 -0.72937596 0.024562445
-0.6112635 -0.16543117 -0.62103057 -0.039786413 -0.49155656 0.368177 0.622338 -0.16580854
0.2984949 -0.31111634 0.012994537 0.3461563 0.06594905 0.7184975 -0.4500768 -0.086993575
-1.0084264 0.6098411 -0.892962 0.06773171 -0.24934319 0.42369187 0.09136685 1.1930366
-0.1339807 0.00068435643 -0.44114524 0.60678416 0.20262617 0.4993839 -0.3535953 -0.10890894
1.1231428 0.2229452 -0.36578083 0.015238379 -0.3888081 0.004144724 -0.70505935 0.05548366
-0.2498153 -0.8527562 0.027063945 0.5100588 -0.11280177 0.020391682 -0.28805202 0.17470077
0.47812238 0.6034848 -0.5536719 0.107613094 0.026289545 -0.26524913 0.24915949 -0.2770835
0.7063848 0.009208301 -0.40619883 0.1237318 0.44959465 0.6218526 0.3205793 0.38549262
0.15360735 -0.13817611 0.3889083 0.06746418 -0.10232673 0.20901889 -0.21669465 -0.28194824
-1.1182547 0.13082574 0.07868358 -0.47213435 -0.07173115 0.20541339 0.48108265 -0.90597063
00000000: c521 27be f875 b7be cb92 13bf 8be2 b4be
00000010: d639 b7be 79db efbe 6d56 f03d 0575 cd3e
00000020: ca1e 483e 317a bbbd 1e55 cb3d b8f7 f3be
00000030: 8e95 943e 4fe0 243f 1be1 d83e 1e93 cd3d
00000040: 24ee 6cbe 126e 443e dc7d 5ebe afae ea3d
00000050: b4f6 7cbd 9869 08be 1e81 3d3c e313 27bf
00000060: b18f 823f a502 c83c 513f a6be 3b06 123f
00000070: 5383 03bd 1a95 db3d b5b3 56bd 7333 413f
00000080: 973e 0b3e cf92 2ebe ba47 d1be e7a8 f0be
00000090: 488d 8a3e 5743 bfbc e4dd da3d 9fda 58be
000000a0: 5268 ac3e 7ab3 153e f747 da3e 7c8e e5be
000000b0: 19e9 17bf c919 4b3f a917 fe3e 02b8 f8be
000000c0: 8ec9 0dbf d4ea 923e a77a 92be aa02 fc3d
000000d0: 9367 78bf 75d0 bfbe 1592 40be f3ef a6bd
000000e0: 7e0b a0be 4731 763b f55d 05be 8641 083f
000000f0: 5385 9b3f ae5f fd3e 4d3a fdbe 71a9 18be
00000100: 07c1 8a3f d237 893d 3a83 7dbd 7481 92be
00000110: dc50 ef3e 5c64 323d c356 f2bd 9e9f 213f
00000120: 7237 eebd ea82 1c3f 6a2f 053f 83a4 9a3e
00000130: 8aa3 f93e c9b5 413e 2b70 5cbf 8ece 0ebf
00000140: 6f39 31bf eac1 f03d 8364 2fbe 11c7 25bf
00000150: f8c2 52bf 7d6f ad3d 1d20 28bf 8557 8b3e
00000160: 16d5 983b 578d c1bd 42b0 83bd 65b3 50bf
00000170: 3ff1 98be 3e05 93be 73da 3f3f 0de1 fb3e
00000180: befe 2b3d 7a20 d03d afe7 a1be 4a44 46bc
00000190: c05b ba3d b327 51be 92fa 013f 6060 223f
000001a0: a267 1f3f 187e b63d a5be cebe 09d7 7d3e
000001b0: 5037 22be cd42 e0be 986f 9dbd d7d3 8b3e
000001c0: 10e6 2f3e 62f6 1c3f dcf9 973e 6292 b2be
000001d0: e8b1 213f ba27 91be c1d3 dfbe b6a8 dbba
000001e0: c05e 9abf f691 dd3d f512 a7be aa26 053f
000001f0: 72d5 083f 894e 3a3f 7bbf 533f f853 11be
00000200: d701 8a3f 251f 82be ea94 763f 85c8 06bf
00000210: 6ac7 0f3e bf48 43be 2f10 53bf 1c36 d9be
00000220: d097 893c 47ee cfbe c631 00bd 9351 ee3e
00000230: 57fa 5d3e 5958 cabb 8ca4 4dbf 9251 013f
00000240: 22a1 9dbe d32d 693e e456 8a3e 39fe 3abf
00000250: 1b94 11bf 15ca 44be a7c8 e23e 7834 dbbe
00000260: 1ced 953e 0aa2 24bf 4973 cbbe 9f38 9cbe
00000270: 944a 29be b77f 203f 8b5e 123e 3377 85be
00000280: b52c 40bf df07 923e e0eb 9e3e 446e 85be
00000290: e150 1c3f d008 0c3d 568f 513f 7ce5 ca3e
000002a0: d70f b0bc a538 b2bd d498 22bf 2fa4 8dbe
000002b0: da0d 213f d405 ce3e 62b8 3abf 2e37 c93c
000002c0: c47b 1cbf ca66 29be dcfb 1ebf 14f7 22bd
000002d0: 4dad fbbe b281 bc3e 8b51 1f3f b7c9 29be
000002e0: 53d4 983e a44a 9fbe 0ae7 543c 663b b13e
000002f0: 4c10 873d 74ef 373f 7770 e6be b029 b2bd
00000300: 1e14 81bf 8c1e 1c3f 2899 64bf ecb6 8a3d
00000310: d253 7fbe 24ee d83e 8b1e bb3d 6cb5 983f
00000320: 3d32 09be 6266 333a cadd e1be 3556 1b3f
00000330: 3c7d 4f3e 3faf ff3e 710a b5be a60b dfbd
00000340: 25c3 8f3f bf4b 643e a047 bbbe 65aa 793c
00000350: db11 c7be 77d0 873b c57e 34bf d642 633d
00000360: 95cf 7fbe 3b4e 5abf 35b5 dd3c 3793 023f
00000370: 9d04 e7bd 750c a73c 8e7b 93be c2e4 323e
00000380: 75cc f43e fb7d 1a3f 71bd 0dbf 4164 dc3d
00000390: 2c5d d73c bcce 87be aa23 7f3e e3dd 8dbe
000003a0: a2d5 343f 6ade 163c 4bf9 cfbe 1967 fd3d
000003b0: 4531 e63e bb31 1f3f f822 a43e 4a5f c53e
000003c0: 3f4b 1d3e 0a7e 0dbe fd1e c73e a92a 8a3d
000003d0: ad90 d1bd 0c09 563e 34e5 5dbe 855b 90be
000003e0: f822 8fbf 2ff7 053e db24 a13d 98bb f1be
000003f0: c8e7 92bd e357 523e 7750 f63e b1ed 67bf

bias_ih_l0 f4 [300]
0.023261307 -0.12566082 -0.2566244 -0.41087955 0.21488485 -0.27786645 -0.13120359 -0.53920984
-0.22539361 -0.31708923 -0.10682995 -0.14080621 -0.3955227 -0.09382381 -0.070201464 -0.35421157
-0.11725217 -0.26085496 -0.41592535 0.085975185 -0.6091367 -0.15901591 -0.019646902 -0.2876247
-0.3709716 -0.028341236 -0.38392287 -0.11889407 0.0050948816 -0.5417869 -0.07626172 0.06198323
-0.30118877 -0.10497642 -0.31594986 0.03923572 -0.093477234 -0.16071057 -0.24943997 -0.27980208
-0.4579632 -0.093048945 -0.24566494 -0.10053692 -0.04123727 -0.6987642 -0.12717414 -0.1860446
0.0002153005 -0.35260028 -0.06546234 -0.15172507 0.0009896434 0.0829798 -0.10059765 0.08397978
-0.391788 0.112495326 -0.33894834 -0.001889532 0.14773498 -0.14231755 0.23606881 -0.38845852
-0.5324005 0.19605942 -0.077569865 0.039574835 -0.08990518 -0.051926356 -0.3476241 -0.12465346
-0.56945336 0.14146641 -0.50629467 -0.45016885 -0.122994006 -0.13637137 -0.05730164 -0.41667214
0.03880222 -0.07460844 -0.29216072 -0.25865957 0.16390663 -0.18834089 -0.21749732 0.029416118
-0.18761137 -0.277303 0.12988791 -0.4954312 0.009400806 0.1947862 0.091010466 -0.37929648
0.047699034 -0.1712453 0.015732195 -0.3762574 -0.32057145 -0.36605325 -0.2647673 -0.64184433
-0.22912809 -0.32642466 0.054332737 -0.53708243 -0.5793046 -0.6560295 -0.24222986 -0.3794232
-0.6323591 -0.5360353 -0.46919635 -0.05681847 -0.81760806 -0.22234227 -0.4079518 -0.4510646
-0.5299743 -0.275124 -0.30429152 -0.63953525 -0.14303331 -1.1781319 -0.8682094 -0.65658486
-0.5956208 -0.68583995 -0.43680254 -0.39235243 -0.21264188 -0.5698015 -0.41054282 -0.73673636
-0.32363918 -0.43137977 -0.25473326 -0.5608669 -0.6247076 -0.52613986 -0.6335709 -0.28296313
-0.23651011 -0.64740384 -0.53781855 0.08912889 -0.79531765 -0.7967529 -0.6368365 -0.46175808
-0.33431196 -0.23265316 0.08212 -0.4481797 -0.24370255 -0.77123344 -0.39547005 -0.418525
-0.390559 -0.3755905 -0.2724138 0.00031820117 -0.47196677 -0.6967747 -0.51864725 0.028463416
-0.35366514 -0.5256011 -0.5555291 -0.3930339 -0.58448523 -0.28364065 -0.5874426 -0.50077593
-0.30707327 -0.85877186 -0.5341636 -0.6237824 -0.01211627 -0.6117663 -0.90092164 -0.8342529
-0.38387862 -0.34008723 -0.46816367 -0.4802283 0.24524936 -0.23300982 -0.53093606 -0.43001926
-0.41753557 -0.30778348 -0.27970883 -0.86816394 -0.77109975 -0.41815093 -0.658993 -0.46787632
-0.18070728 -0.061799515 0.28268102 -0.142528 0.39706105 -0.254211 0.1171298 -0.008197623
-0.0011270196 0.0863387 0.023501163 -0.023001246 -0.34798488 -0.2743197 0.013603995 0.27277118
0.047572445 0.11487585 0.05663583 0.15530582 -0.28370753 -0.12071997 0.04157125 -0.15855058
-0.030221209 -0.08731109 0.21943438 -0.26315132 -0.11780193 0.29415026 0.0356676 -0.1520688
-0.07360324 -0.38206193 0.23089737 -0.18824981 0.31057784 -0.09571774 -0.40267348 -0.001456248
-0.45911586 -0.012272072 -0.102755405 0.07964233 0.13388185 0.07704796 0.23999316 0.11150251
0.14756995 0.04798832 0.2882583 0.26304504 -0.37259075 0.3047101 0.12346288 -0.20300697
00000000: 7f8e be3c 3bad 00be 4664 83be ce5e d2be
00000010: c60a 5c3e 8344 8ebe 3c5a 06be a809 0abf
00000020: 95cd 66be 8559 a2be a9c9 dabd 812f 10be
00000030: f481 cabe b326 c0bd c9c5 8fbd 385b b5be
00000040: e821 f0bd c88e 85be 2bf4 d4be c213 b03d
00000050: 62f0 1bbf 11d5 22be 8af2 a0bc 8b43 93be
00000060: fdef bdbe e12b e8bc 8a91 c4be bc7e f3bd
00000070: f7f2 a63b 8cb2 0abf 1b2f 9cbd 21e2 7d3d
00000080: 6a35 9abe e1fd d6bd 2ec4 a1be a2b5 203d
00000090: fe70 bfbd 5091 24be 316d 7fbe 3842 8fbe
000000a0: 277a eabe 7290 bebd 978f 7bbe 4de6 cdbd
000000b0: 69e8 28bd 36e2 32bf f039 02be 7a82 3ebe
000000c0: 4ac2 6139 0688 b4be 1f11 86bd d15d 1bbe
000000d0: ecb6 813a 50f1 a93d 2406 cebd 97fd ab3d
000000e0: 7098 c8be f363 e63d a38a adbe 2caa f7ba
000000f0: d747 173e b1bb 11be 06bc 713e 09e4 c6be
00000100: 664b 08bf cdc3 483e f3dc 9ebd 3919 223d
00000110: 3520 b8bd bbb0 54bd c9fb b1be 504a ffbd
00000120: b2c7 11bf 92dc 103e 879c 01bf 887c e6be
00000130: 48e4 fbbd f0a4 0bbe 20b5 6abd 0d56 d5be
00000140: 14ef 1e3d 4fcc 98bd 1796 95be 076f 84be
00000150: 24d7 273e 6fdc 40be 9eb7 5ebe 12fa f03c
00000160: 321d 40be a9fa 8dbe 5601 053e 29a9 fdbe
00000170: d705 1a3c 0976 473e b263 ba3d 2633 c2be
00000180: 1060 433d ee5a 2fbe cee0 803c cfa4 c0be
00000190: f121 a4be 556b bbbe 948f 87be e94f 24bf
000001a0: 8ea0 6abe 2221 a7be 018c 5e3d 3c7e 09bf
000001b0: 4e4d 14bf 8df1 27bf 1b0b 78be c243 c2be
000001c0: 49e2 21bf 9c39 09bf 813a f0be 7cba 68bd
000001d0: c34e 51bf b1ad 63be 0fdf d0be f0f1 e6be
000001e0: 65ac 07bf 0edd 8cbe 19cc 9bbe 95b8 23bf
000001f0: 5377 12be 07cd 96bf f942 5ebf f215 28bf
00000200: 9b7a 18bf 3593 2fbf 95a4 dfbe 6be2 c8be
00000210: cbbe 59be 83de 11bf ab32 d2be c19a 3cbf
00000220: 09b4 a5be cfdd dcbe 666c 82be f994 0fbf
00000230: d6ec 1fbf 1ab1 06bf b431 22bf 8be0 90be
00000240: b52f 72be 42bc 25bf 7aae 09bf 3589 b63d
00000250: f099 4bbf 00f8 4bbf b807 23bf 8e6b ecbe
00000260: f02a abbe a13c 6ebe 882e a83d cf77 e5be
00000270: 298d 79be 8e6f 45bf 0d7b cabe e948 d6be
00000280: 59f7 c7be 664d c0be d279 8bbe 3dd4 a639
00000290: a1a5 f1be d45f 32bf 11c6 04bf 1c2c e93c
000002a0: 9913 b5be cb8d 06bf 2837 0ebf bd3b c9be
000002b0: d3a0 15bf 5939 91be a362 16bf da32 00bf
000002c0: b538 9dbe 79d8 5bbf f2be 08bf 34b0 1fbf
000002d0: 5283 46bc b79c 1cbf cda2 66bf 9991 55bf
000002e0: bd8b c4be ea1f aebe 26b3 efbe 7ce0 f5be
000002f0: a622 7b3e 209a 6ebe 6deb 07bf 7c2b dcbe
00000300: 39c7 d5be cc95 9dbe ff35 8fbe fe3f 5ebf
00000310: cb66 45bf e117 d6be c4b3 28bf 7c8d efbe
00000320: 540b 39be 7d21 7dbd 91bb 903e dcf2 11be
00000330: 964b cb3e f227 82be c0e1 ef3d 534f 06bc
00000340: 81b8 93ba 58d2 b03d 8385 c03c 1c6d bcbc
00000350: 132b b2be a273 8cbe 4ae3 5e3c aaa8 8b3e
00000360: 53db 423d 0844 eb3d f9fa 673d 7d08 1f3e
00000370: 1d42 91be 083c f7bd 9d46 2a3d 155b 22be
00000380: 7892 f7bc 28d0 b2bd 68b3 603e c5bb 86be
00000390: 2342 f1bd dd9a 963e 3018 123d ecb7 1bbe
000003a0: 4cbd 96bd 9f9d c3be 5c70 6c3e 8fc4 40be
000003b0: 0f04 9f3e aa07 c4bd 382b cebe 93df beba
000003c0: 3c11 ebbe cd10 49bc 6d71 d2bd 851b a33d
000003d0: 5318 093e 52cb 9d3d c4c0 753e 6e5b e43d
000003e0: 941c 173e 678f 443d 9896 933e d7ad 863e
000003f0: 37c4 bebe f602 9c3e 1bda fc3d 0fe1 4fbe

bias_hh_l0 f4 [300]
0.07610724 -0.19353361 -0.18198805 -0.45523372 0.271149 -0.29209152 -0.18356432 -0.4304917
-0.22199935 -0.41452777 -0.09294075 -0.2169483 -0.4369395 -0.04682101 0.01479073 -0.39591697
-0.109505974 -0.25816494 -0.43945748 0.07289246 -0.5968714 -0.21310267 0.050098598 -0.37285665
-0.49959102 -0.11934716 -0.5039216 -0.028001238 -0.057404935 -0.44225973 -0.10231115 0.12760533
-0.35074145 -0.08334216 -0.31166175 -0.09185361 -0.0917102 -0.12754409 -0.264166 -0.19850783
-0.4277944 -0.14844416 -0.2741971 -0.18810964 0.016820822 -0.6037105 -0.19201545 -0.14156634
-0.004365468 -0.44582132 -0.15489247 -0.34883037 -0.0028780208 0.11887459 -0.11723005 0.09284866
-0.3614858 0.19535534 -0.3625193 -0.033707265 0.106096104 -0.32341993 0.3241462 -0.41517636
-0.52670056 0.17185023 -0.07287623 -0.043952554 -0.050029505 -0.1752519 -0.28392076 -0.17826854
-0.43729806 0.15820119 -0.46579272 -0.38348266 -0.016598245 -0.09785308 0.0030331714 -0.39734074
-0.007957052 -0.08383038 -0.40278506 -0.2381078 0.21302602 -0.28150383 -0.25290242 0.051157195
-0.17217588 -0.2519484 0.1864259 -0.47965068 -0.054659706 0.14205419 0.11852102 -0.5363129
0.06417416 -0.08452446 -0.1466812 -0.3408401 -0.37686384 -0.49966332 -0.3585688 -0.648437
-0.271151 -0.44269863 0.14620999 -0.5399483 -0.7163538 -0.59778094 -0.19944367 -0.29282168
-0.7061175 -0.37024033 -0.5598986 -0.169833 -0.8275487 -0.2362821 -0.45050502 -0.47657707
-0.597049 -0.26062012 -0.34942487 -0.6005694 -0.23798242 -1.0323435 -0.83329797 -0.6090655
-0.64021236 -0.7304522 -0.28721178 -0.36090276 -0.1621023 -0.63786674 -0.38392606 -0.7996849
-0.22224228 -0.5330888 -0.28696215 -0.5647415 -0.6393622 -0.60709155 -0.616357 -0.34705412
-0.23151232 -0.70129985 -0.4515848 0.028001675 -0.7983603 -0.76102006 -0.46064672 -0.45164397
-0.30729097 -0.3018583 0.11749604 -0.5941053 -0.21078864 -0.87061715 -0.46068147 -0.35072684
-0.25754768 -0.29178736 -0.44624767 0.028437307 -0.53808117 -0.6960506 -0.51927626 0.045457404
-0.41364175 -0.4761909 -0.677642 -0.4678571 -0.64735997 -0.35561043 -0.69069064 -0.45175606
-0.111733355 -0.7069419 -0.5267434 -0.5297786 -0.022831095 -0.6639904 -0.86873364 -0.8274139
-0.2746384 -0.3633986 -0.46009606 -0.51014954 0.2214142 -0.24146712 -0.54128474 -0.30631584
-0.49495912 -0.39974123 -0.20649743 -0.8171688 -0.88874096 -0.31802943 -0.67401755 -0.35637558
0.023480995 0.43990654 0.44242802 -0.11763694 0.34923476 -0.3740392 0.1255651 0.05263267
-0.121996336 0.014413195 -0.1669342 0.041065015 -0.4779054 0.25067288 0.37073725 0.46483952
0.07054367 -0.3686393 0.24712382 0.28251898 -0.27391377 -0.18347813 -0.2811603 -0.35709065
-0.15043576 0.17976993 0.30120403 -0.39194453 -0.5520154 -0.06584434 0.40740597 0.14949325
0.004151551 -0.3465297 0.3926961 -0.4286424 0.3769803 -0.22416364 -0.0193408 0.14368248
-0.27020696 0.034483086 -0.049306348 0.27753538 -0.33735403 0.06819261 0.33137667 0.4533527
0.17890808 -0.3038311 0.43391424 -0.05282196 -0.014576741 -0.12399339 0.4402639 -0.07427309
00000000: 1dde 9b3d ad2d 46be 135b 3abe 6514 e9be
00000010: 0bd4 8a3e 058d 95be 49f8 3bbe 6869 dcbe
00000020: cc53 63be fc3c d4be b857 bebd b227 5ebe
00000030: 89b6 dfbe 63c7 3fbd d154 723c a1b5 cabe
00000040: ab44 e0bd 322e 84be 9200 e1be a448 953d
00000050: 90cc 18bf 9637 5abe 3034 4d3d 11e7 bebe
00000060: 65ca ffbe 496c f4bd 0201 01bf da62 e5bc
00000070: 7021 6bbd de6f e2be 8288 d1bd f9aa 023e
00000080: 6294 b3be 4baf aabd 2192 9fbe bf1d bcbd
00000090: 8fd2 bbbd eb9a 02be c440 87be a345 4bbe
000000a0: de07 dbbe bf01 18be 9063 8cbe d09f 40be
000000b0: d2cb 893c c58c 1abf b39f 44be c4f6 10be
000000c0: 330c 8fbb b142 e4be 229c 1ebe e599 b2be
000000d0: 2d9d 3cbb 8574 f33d 4f16 f0bd 7027 be3d
000000e0: ab14 b9be 3b0b 483e 219c b9be a110 0abd
000000f0: ea48 d93d 4c97 a5be 7ef6 a53e ff91 d4be
00000100: d9d5 06bf 82f9 2f3e 2240 95bd 9807 34bd
00000110: bdeb 4cbd 3c75 33be 105e 91be 078c 36be
00000120: 88e5 dfbe 7eff 213e 627c eebe d757 c4be
00000130: 0bf9 87bc 3267 c8bd 2cc8 463b 3f70 cbbe
00000140: 4c5e 02bc 43af abbd d839 cebe 88d2 73be
00000150: 7e23 5a3e 4521 90be 6d7c 81be 358a 513d
00000160: e04e 30be 61ff 80be 6ee6 3e3e c694 f5be
00000170: dbe2 5fbd a776 113e 26bb f23d cd4b 09bf
00000180: be6d 833d 291b adbd 9933 16be 9882 aebe
00000190: 4cf4 c0be dfd3 ffbe 5496 b7be f8ff 25bf
000001a0: 4ed4 8abe 65a9 e2be 12b8 153e 0d3a 0abf
000001b0: f662 37bf 2c08 19bf f63a 4cbe b9ec 95be
000001c0: 1ec4 34bf 2490 bdbe 8455 0fbf b4e8 2dbe
000001d0: 3bda 53bf eff3 71be 98a8 e6be e901 f4be
000001e0: 34d8 18bf 0070 85be d1e7 b2be ebbe 19bf
000001f0: aab1 73be d523 84bf 0453 55bf b7eb 1bbf
00000200: f5e4 23bf eafe 3abf 6c0d 93be 3fc8 b8be
00000210: 25fe 25be 3c4b 23bf f591 c4be 26b8 4cbf
00000220: 7b93 63be 8278 08bf b4ec 92be e692 10bf
00000230: 3ead 23bf 5a6a 1bbf 93c9 1dbf 14b1 b1be
00000240: 9111 6dbe 6388 33bf 1f36 e7be c563 e53c
00000250: 5761 4cbf 36d2 42bf e3d9 ebbe e13d e7be
00000260: 3e55 9dbe 2c8d 9abe c4a1 f03d 4917 18bf
00000270: fad8 57be c4e0 5ebf 71de ebbe 7892 b3be
00000280: 4add 83be 2765 95be 937a e4be 5bf5 e83c
00000290: b0bf 09bf 5f30 32bf 4aef 04bf 8b31 3a3d
000002a0: dac8 d3be 4bcf f3be f279 2dbf f78a efbe
000002b0: 62b9 25bf 9212 b6be 1ad1 30bf 924c e7be
000002c0: 75d4 e4bd 25fa 34bf a8d8 06bf 929f 07bf
000002d0: 4708 bbbc 46fb 29bf 5465 5ebf 66d1 53bf
000002e0: 689d 8cbe 620f babe b691 ebbe 2999 02bf
000002f0: 67ba 623e 2843 77be a391 0abf 6ed5 9cbe
00000300: 486b fdbe e2aa ccbe 1074 53be f931 51bf
00000310: 8784 63bf c1d4 a2be 6a8c 2cbf dc76 b6be
00000320: 375b c03c 6e3b e13e ed85 e23e a3eb f0bd
00000330: e6ce b23e 1182 bfbe 2394 003e 5b95 573d
00000340: 37d9 f9bd 5225 6c3c cdf0 2abe ca33 283d
00000350: 04b0 f4be 3258 803e 46d1 bd3e 72ff ed3e
00000360: 3379 903d 4abe bcbe 070e 7d3e 54a6 903e
00000370: 6d3e 8cbe b1e1 3bbe 3ef4 8fbe 96d4 b6be
00000380: d50b 1abe 9c15 383e 6a37 9a3e f4ac c8be
00000390: e250 0dbf 66d9 86bd 8497 d03e c214 193e
000003a0: bc09 883b 576c b1be 770f c93e 0477 dbbe
000003b0: 9003 c13e 278b 65be 9970 9ebc 8021 133e
000003c0: 9158 8abe 233e 0d3d 74f5 49bd 1e19 8e3e
000003d0: abb9 acbe 91a8 8b3d 34aa a93e d81d e83e
000003e0: ae33 373e c08f 9bbe 022a de3e d75b 58bd
000003f0: 48d3 6ebc 3ff0 fdbd 456a e13e 7d1c 98bd

weight_ih_l1 f4 [300, 100]
-1.2098905 0.45176646 -0.19571121 -0.28969425 -0.13289766 0.7693955 0.18785574 -0.9469806
0.9304418 -0.6005329 -0.42717668 0.31826717 1.0380487 0.3157424 0.88064724 -0.01776732
0.9946384 0.56207746 -0.11763313 -0.9711095 0.38924313 0.104495645 -0.13499391 -0.12289836
0.24657552 0.0086895805 0.3684496 -0.22417799 0.2795598 -0.41201082 0.35164768 -0.4322774
0.48151964 0.043932393 0.5911437 -0.021183452 0.077021085 -0.75197613 -0.39513966 -0.07860229
-0.6976707 0.35607886 0.49567226 -0.3454038 -0.33934158 -0.8425587 0.7165415 0.26100266
0.22164863 0.07668249 -0.4397964 -0.097828075 -0.10258263 0.15951341 -0.4722135 0.06194206
0.1343039 0.34746286 -0.03820073 -0.38613257 -0.8138351 0.3163976 -0.13846774 -0.13065489
0.058852535 -0.4727563 -0.07933827 -0.69531476 -0.32428908 0.78603226 -0.19935262 -0.14459129
0.047120884 0.68925124 0.17638357 0.9148568 -0.89092195 0.55838764 -0.36550114 0.76750803
0.4488965 -0.14864339 -0.29071796 -0.31305733 -0.9356073 -0.120999224 0.058671426 0.5683744
0.496133 -0.47987887 0.16803795 -0.30943483 -0.24918833 0.4251098 0.7155049 -0.34064424
-0.41583875 -0.15794875 0.56409776 -0.1048789 -0.07733936 -0.41614154 -0.38129005 0.98451155
-0.03238941 0.13076675 -0.34120664 -0.6433488 -0.094011225 0.04089128 -0.0099787405 -0.17666584
0.56852466 -0.43897566 -0.06489234 0.042478327 0.118129075 0.6553613 -0.46163446 0.32523665
0.8588047 0.31607273 0.101035155 -0.5727073 0.6992661 -1.6208888 0.4916598 0.21269904
0.4874213 0.22535673 -0.03396293 -0.036412753 -0.2195795 -1.0686826 -0.6293193 -0.36322752
-0.5353309 -1.7350984 0.05920053 0.89826137 -0.15418506 0.46275252 0.08188946 0.20974812
0.55455405 0.23596351 -0.92175794 0.105593555 -0.073653415 0.17059925 0.13064907 0.29369602
0.092453495 0.17237352 0.82966286 -0.43153974 0.9409135 0.70354515 -0.42284542 -0.4835002
0.7940978 0.20274141 0.12626277 0.19146565 -0.048261933 1.1746438 -0.2759173 -0.14864607
-0.15684928 -1.7744225 0.24213073 0.30043834 0.08170823 -0.029669652 -0.14199562 -0.2570555
0.68782043 -0.3383636 0.073666036 0.28848213 -0.89123756 -0.14200293 0.9290483 -0.082175866
0.5005358 0.6495557 0.035116896 0.17076401 -0.20555037 0.5552409 -0.1543262 -0.45216677
0.51689595 0.5046853 0.021760734 0.43448192 -0.5887822 -0.7777417 -0.63465416 0.36268726
-0.08955554 0.7199627 0.23376818 0.85898477 0.23964821 1.0647713 0.59351563 -0.48716873
1.1562611 0.6221908 0.13282232 0.19124313 -0.17557515 0.063977756 0.48829183 -1.3251302
0.2416467 -0.10858147 -0.13585193 -0.034118272 -0.06289301 -0.81424516 -0.57172155 -0.56938124
0.30252227 1.119516 -0.87633514 -0.09636284 0.15869813 -0.42164916 0.26981533 0.2686858
0.17627844 0.14483505 -0.025120106 -0.44920996 0.23122163 -0.086355366 0.32639614 0.5448385
0.5996569 0.019284008 -0.65479976 0.57770246 -0.006067401 1.0228966 -0.13993323 -0.9715063
-0.22538044 0.29986423 -1.3679266 -0.46977746 0.5016622 -0.17882878 -0.66646034 0.1257836
00000000: b1dd 9abf ef4d e73e 8568 48be ce52 94be
00000010: 5316 08be 1af7 443f 415d 403e 526d 72bf
00000020: 6f31 6e3f 86bc 19bf e7b6 dabe eaf3 a23e
00000030: c8de 843f fda8 a13e 1972 613f c58c 91bc
00000040: 9fa0 7e3f 4fe4 0f3f a3e9 f0bd a29a 78bf
00000050: e04a c73e d001 d63d d83b 0abe 23b2 fbbd
00000060: 4b7e 7c3e be5e 0e3c 6da5 bc3e ea8e 65be
00000070: 7622 8f3e 15f3 d2be 2a0b b43e 7753 ddbe
00000080: be89 f63e 74f2 333d 3255 173f eb88 adbc
00000090: 3bbd 9d3d 8281 40bf bf4f cabe 3dfa a0bd
000000a0: 8c9a 32bf f84f b63e c1c8 fd3e c4d8 b0be
000000b0: 2ebe adbe edb1 57bf 446f 373f 24a2 853e
000000c0: dcf7 623e b60b 9d3d fe2c e1be 165a c8bd
000000d0: d816 d2bd 7c57 233e f8c5 f1be f5b6 7d3d
000000e0: f686 093e a7e6 b13e 5e78 1cbd 2bb3 c5be
000000f0: 7f57 50bf defe a13e 7dca 0dbe 65ca 05be
00000100: 5b0f 713d 1d0d f2be 1a7c a2bd 2600 32bf
00000110: 3809 a6be 6939 493f 1823 4cbe bd0f 14be
00000120: d401 413d c572 303f e59d 343e 0e34 6a3f
00000130: 7613 64bf 7ef2 0e3f f722 bbbe 687b 443f
00000140: c3d5 e53e f935 18be fcd8 94be 0d49 a0be
00000150: f683 6fbf 71ce f7bd 7351 703d fc80 113f
00000160: 2505 fe3e afb2 f5be 2412 2c3e 3e6e 9ebe
00000170: 3a2b 7fbe fea7 d93e 542b 373f ec68 aebe
00000180: d1e8 d4be 51bd 21be b668 103f c0ca d6bd
00000190: 1964 9ebd 8110 d5be 7338 c3be f308 7c3f
000001a0: c2aa 04bd b8e7 053e a3b2 aebe 82b2 24bf
000001b0: f588 c0bd 9d7d 273d df7d 23bc e4e7 34be
000001c0: d58a 113f 6bc1 e0be 46e6 84bd c1fd 2d3d
000001d0: a8ed f13d c2c5 273f 5a5b ecbe 6b85 a63e
000001e0: a0da 5b3f 49d4 a13e 85eb ce3d f29c 12bf
000001f0: 1a03 333f 4979 cfbf d5ba fb3e c7cd 593e
00000200: 498f f93e eac3 663e b71c 0bbd 8a25 15bd
00000210: 73d9 60be 97ca 88bf 121b 21bf f5f8 b9be
00000220: 720b 09bf b417 debf 417c 723d 75f4 653f
00000230: b0e2 1dbe e6ed ec3e a9b5 a73d 36c8 563e
00000240: 41f7 0d3f 6ba0 713e 54f8 6bbf 6f41 d83d
00000250: 9ad7 96bd 92b1 2e3e dfc8 053e 535f 963e
00000260: 4258 bd3d af82 303e c964 543f c7f2 dcbe
00000270: b5df 703f 891b 343f 327f d8be 578d f7be
00000280: fe49 4b3f 729b 4f3e 074b 013e 920f 443e
00000290: 4eae 45bd ba5a 963f 0845 8dbe ad36 18be
000002a0: 199d 20be 4720 e3bf 1ef1 773e 0ed3 993e
000002b0: a556 a73d c50d f3bc 4d67 11be c79c 83be
000002c0: 0015 303f fe3d adbe 38de 963d eeb3 933e
000002d0: 2528 64bf 3769 11be 1cd6 6d3f d24b a8bd
000002e0: 1d23 003f 4849 263f bcd6 0f3d c3dc 2e3e
000002f0: cc7b 52be 4524 0e3f b007 1ebe 6782 e7be
00000300: 4b53 043f 0e33 013f 9143 b23c 6a74 de3e
00000310: 6eba 16bf 141a 47bf b278 22bf 25b2 b93e
00000320: e568 b7bd 7a4f 383f ed60 6f3e 6de6 5b3f
00000330: 5766 753e 6d4a 883f a4f0 173f 2e6e f9be
00000340: 5d00 943f e547 1f3f 9302 083e 3dd5 433e
00000350: f9c9 33be c506 833d 6301 fa3e de9d a9bf
00000360: 3c72 773e f65f debd c51c 0bbe 9abf 0bbd
00000370: 0dce 80bd 5f72 50bf 585c 12bf f8c2 11bf
00000380: 33e4 9a3e 4d4c 8f3f 8057 60bf e159 c5bd
00000390: c381 223e 66e2 d7be 3c25 8a3e 2f91 893e
000003a0: 5682 343e a44f 143e aec8 cdbc d9fe e5be
000003b0: 5dc5 6c3e 15db b0bd 651d a73e 897a 0b3f
000003c0: 1d83 193f 7ff9 9d3c f5a0 27bf 4fe4 133f
000003d0: 0cd1 c6bb 47ee 823f a84a 0fbe a3b4 78bf
000003e0: 21ca 66be ce87 993e 3818 afbf ac86 f0be
000003f0: ef6c 003f e41e 37be 259d 2abf 6bcd 003e

weight_hh_l1 f4 [300, 100]
1.0893488 0.73897636 0.16321468 0.23918061 0.23547861 -0.21362908 -0.40400767 -0.09667263
-0.096286714 0.17053248 -0.007430496 -0.6661412 0.5468346 -0.6365925 -0.2207811 -0.5429247
-0.38189346 0.22829486 0.34752536 0.54260576 -0.4267133 0.061255924 0.9583292 0.22830528
-0.054499548 0.28016505 0.5919593 -0.30809462 -0.06875117 0.7591975 0.078860834 -0.029782869
-0.58495957 0.04516939 0.60082 -0.08037592 0.56561995 -0.120355375 0.5835654 0.45703724
0.27632427 -0.29527506 0.0441971 0.17561936 -1.1642425 0.33790192 -0.13388617 0.35694057
-0.81652534 0.4844174 -0.58839667 0.13164599 -0.24095239 0.24070144 -0.11102156 -0.54873145
0.014035173 -0.35476908 -0.3104911 -0.01993117 -0.03248657 0.40733635 -0.03461013 0.161095
0.4561106 0.08747384 -0.014427095 0.55118763 -0.11804493 0.17667836 -0.7867601 0.01412001
-0.120713554 -0.45534703 0.28160354 -0.023635782 0.0035178203 0.042346425 0.09139618 0.3543839
-0.18582574 0.34870815 0.50477755 0.5701223 -0.15609026 0.170946 -0.17792945 -0.25075933
0.048379764 -0.83162504 -0.09495789 -0.19104348 0.6793935 -0.6271311 -0.027780099 0.34788188
0.68710184 0.10110078 -0.94834167 0.16860172 -0.19499715 -0.49584818 -0.0122890165 0.00033306133
-0.37799454 -0.41747722 -0.05385015 0.2594239 -0.110552125 -0.07110546 0.46179917 0.1250922
0.44210804 -0.1934662 -0.4290775 -1.226141 -0.43871763 -0.99212766 -0.16715635 -0.5318253
0.34031633 -0.237173 -0.70240384 0.505442 0.81738275 -0.18539257 0.34940383 0.7896786
0.20818304 0.09927095 -0.4259655 0.6666582 -1.0496969 0.14212215 0.22956024 -0.2684505
-0.3191254 0.3012207 -0.042471338 0.099850215 0.12448239 -0.5150109 -0.37015775 -0.11563323
-0.15120079 -0.3155832 0.3441048 -0.48761386 0.25386724 0.3045745 0.33350468 -0.67033225
-0.24583808 -0.045349173 0.4780713 0.15321404 0.44458637 0.921085 -0.020948844 -0.2214755
-0.04252108 0.2653546 0.24340218 -0.06528796 0.04366707 -0.08182444 1.008928 -0.08024637
-0.24312009 0.017574882 -0.28509063 -0.21484454 -0.11789289 -0.4843342 -0.6072831 -0.08527352
0.3687841 0.124755196 0.030578224 -0.27860212 0.37604666 -0.0957472 -0.08928804 -0.70452875
0.0100861825 0.3195463 0.5165926 -0.3661825 0.26633546 -0.10485969 -0.9563012 0.072739825
-0.021558166 0.32429138 -0.6993529 -0.05023331 0.2928416 0.58411765 0.15364772 0.21961178
-0.16286199 0.76621956 -0.6112567 0.08336633 -0.3454597 0.33588898 0.31036404 -0.19240569
-0.28072777 -0.7451315 0.34458876 -0.47906604 0.37510055 -0.018775338 -0.5035574 -0.5301859
-0.12600307 0.22312063 0.48104292 -0.6132278 -0.46167815 -0.29144928 -0.29114527 -0.7202034
0.23876223 0.21782571 0.561836 -0.50612175 0.490123 -0.9054436 0.4021155 -0.020795977
0.6288933 0.16754916 0.5818736 0.22349063 0.289139 0.5481257 -0.7995003 -0.17305362
-0.15784214 0.53059983 0.70795405 -0.036068592 0.6979627 -0.96436197 -0.27179652 -0.0689789
-0.230204 -0.15775454 0.3230044 0.53011006 -0.09036489 -0.32969815 0.19551063 -0.42679125
00000000: c86f 8b3f 8e2d 3d3f c021 273e c3eb 743e
00000010: 4e21 713e 95c1 5abe 18da cebe 4dfc c5bd
00000020: f831 c5bd 11a0 2e3e 857b f3bb 3b88 2abf
00000030: 5afd 0b3f baf7 22bf 7114 62be 1dfd 0abf
00000040: 8a87 c3be 21c6 693e d8ee b13e 36e8 0a3f
00000050: 2a7a dabe 7ee7 7a3d 1055 753f dcc8 693e
00000060: eb3a 5fbd cb71 8f3e a58a 173f 94be 9dbe
00000070: 6acd 8cbd c45a 423f ca81 a13d 34fb f3bc
00000080: e9bf 15bf 8a03 393d 57cf 193f 219c a4bd
00000090: 78cc 103f e17c f6bd 8b64 153f c900 ea3e
000000a0: 607a 8d3e 4b2e 97be 0508 353d 90d5 333e
000000b0: e605 95bf 7b01 ad3e 7519 09be eac0 b63e
000000c0: ce07 51bf 8f05 f83e 2aa1 16bf 35ce 063e
000000d0: 39bc 76be 707a 763e 465f e3bd aa79 0cbf
000000e0: c8f3 653c 4ba4 b5be b1f8 9ebe b146 a3bc
000000f0: a310 05bd 648e d03e 5ac3 0dbd 16f6 243e
00000100: 5487 e93e 7c25 b33d 9f5f 6cbc a21a 0d3f
00000110: 8ac1 f1bd 2ceb 343e 1c69 49bf 9d57 673c
00000120: ab38 f7bd 3f23 e9be 572e 903e d49f c1bc
00000130: 3b8b 663b 7273 2d3d ec2d bb3d ce71 b53e
00000140: 1a49 3ebe e089 b23e 1a39 013f 89f3 113f
00000150: 20d6 1fbe 780c 2f3e 2333 36be 8763 80be
00000160: dc29 463d 61e5 54bf 4879 c2bd e7a0 43be
00000170: bbec 2d3f aa8b 20bf 1793 e3bc 931d b23e
00000180: e8e5 2f3f ed0d cf3d 85c6 72bf eea5 2c3e
00000190: 55ad 47be d0df fdbe df57 49bc bc9e ae39
000001a0: 8088 c1be 93bf d5be fa91 5cbd 36d3 843e
000001b0: 2769 e2bd bd9f 91bd f170 ec3e 2b18 003e
000001c0: fc5b e23e 011c 46be 0cb0 dbbe 30f2 9cbf
000001d0: 999f e0be 14fc 7dbf 092b 2bbe b425 08bf
000001e0: f13d ae3e 7bdd 72be bdd0 33bf a664 013f
000001f0: ff3f 513f 8dd7 3dbe 0fe5 b23e 6028 4a3f
00000200: ef2d 553e 914e cb3d 2618 dabe 1daa 2a3f
00000210: 785c 86bf 7888 113e d711 6b3e 5872 89be
00000220: 6864 a3be 9939 9a3e 6df6 2dbd 457e cc3d
00000230: a0f0 fe3d c1d7 03bf 5185 bdbe 1dd1 ecbd
00000240: 61d4 1abe 1f94 a1be 812e b03e 86a8 f9be
00000250: e3fa 813e 30f1 9b3e 20c1 aa3e e59a 2bbf
00000260: fabc 7bbe 0ec0 39bd c3c5 f43e 24e4 1c3e
00000270: d3a0 e33e 3acc 6b3f e99c abbc 79ca 62be
00000280: 952a 2ebd 8fdc 873e 6c3e 793e b2b5 85bd
00000290: 3edc 323d 9293 a7bd 8d24 813f 3558 a4bd
000002a0: 79f4 78be 33f9 8f3c 66f7 91be 3500 5cbe
000002b0: d471 f1bd a7fa f7be e876 1bbf e2a3 aebd
000002c0: 45d1 bc3e a77f ff3d 2f7f fa3c f0a4 8ebe
000002d0: 3089 c03e 1c17 c4bd a6dc b6bd ff5b 34bf
000002e0: 8440 253c 939b a33e 6a3f 043f 467c bbbe
000002f0: 1f5d 883e adc0 d6bd 28d0 74bf 9ef8 943d
00000300: c09a b0bc 8509 a63e cb08 33bf 71c1 4dbd
00000310: 56ef 953e bc88 153f d455 1d3e e9e1 603e
00000320: 4bc5 26be f726 443f 527b 1cbf f7bb aa3d
00000330: 18e0 b0be a4f9 ab3e 09e8 9e3e ff05 45be
00000340: 8dbb 8fbe f0c0 3ebf f06d b03e 2548 f5be
00000350: 2e0d c03e bdce 99bc 23e9 00bf 43ba 07bf
00000360: f306 01be bc79 643e 424b f63e 7ffc 1cbf
00000370: 1461 ecbe d738 95be fe10 95be 405f 38bf
00000380: 167e 743e b40d 5f3e 7cd4 0f3f 3291 01bf
00000390: 67f1 fa3e 27cb 67bf 15e2 cd3e 535c aabc
000003a0: 27ff 203f 0292 2b3e abf5 143f bada 643e
000003b0: 070a 943e f751 0c3f 0dac 4cbf f834 31be
000003c0: 5fa1 21be 64d5 073f 7a3c 353f a9bc 13bd
000003d0: afad 323f 6de0 76bf ea28 8bbe cf44 8dbd
000003e0: 99ba 6bbe 688a 21be d560 a53e 4bb5 073f
000003f0: 3a11 b9bd 32ce a8be f033 483e 6284 dabe

bias_ih_l1 f4 [300]
-0.047952633 -0.112437166 -0.22660798 -0.0399877 -0.23277886 0.120295 0.025847422 -0.20399538
0.097795926 -0.11353471 0.025224103 0.08411225 -0.3386442 -0.036810983 -0.09278122 -0.1349067
0.020459142 -0.13075615 -0.10668831 0.15493022 -0.2057544 0.2203625 0.11929876 0.22510256
-0.3533142 -0.17290322 0.14029136 0.012238378 0.038385496 -0.026415266 -0.26002777 0.15722537
0.040887896 0.24244153 -0.102090634 -0.14604828 -0.16082376 -0.01730689 -0.0641492 0.12081751
0.03083366 -0.1893554 0.32108054 -0.020598102 -0.11725516 0.07899438 0.076849565 -0.19669998
-0.1544205 0.09276454 -0.1626985 0.0069960724 -0.09471552 -0.2668627 0.096951075 0.11674719
-0.39602923 -0.031246584 0.14956437 0.09941216 -0.06869563 -0.26260197 -0.026780616 -0.074269556
0.04671683 0.004113071 0.022344861 -0.17337999 0.32220587 0.19035788 0.06777189 -0.135166
0.116270244 0.14249557 0.08170238 0.19359754 -0.16120537 -0.38811904 0.03168411 -0.112368844
0.08351853 -0.22151549 -0.06439392 -0.25187147 -0.036589023 -0.25993016 0.26310515 -0.010487231
0.118343905 0.04805945 0.031513304 0.16807579 -0.09460529 -0.050356887 0.14035864 0.19630629
-0.15742235 -0.010771241 -0.12853606 -0.44138837 -0.5447105 -0.18643709 -0.18769026 -0.19441494
-0.49834186 0.1217449 0.0012060739 0.007898864 -0.15297437 -0.08674861 -0.17635351 -0.24155492
-0.046335805 -0.14627384 -0.15606426 -0.40949547 -0.13092023 -0.22360758 -0.029875997 -0.26252642
-0.33972633 -0.69368434 -0.3738484 -0.8443378 -0.2927422 -0.28324926 -0.63287157 -0.6227259
-0.2503833 -0.43059328 -0.32259908 0.12537126 -0.37690052 -0.45742148 -0.16080093 0.2149281
-0.057700757 -0.3210862 0.12405056 -0.33094534 0.5598924 0.008917051 -0.2243316 0.035149988
-0.1306876 -0.5554286 -0.31256253 -0.44413996 -0.0013184162 0.094796464 -0.14696233 -0.22106802
0.018815868 -0.24095215 0.0031676786 -0.33146742 0.04702841 -0.061936375 -0.27713457 -0.15564603
0.6844457 -0.34966227 -0.44493636 -0.41416627 0.09103041 0.14286113 -0.23916791 -0.29409358
-0.8525282 -0.11305929 -0.3151717 -0.117178276 -0.31129462 -0.31152585 -0.27092978 -0.24666421
0.101191975 -0.41018766 0.053919557 -0.29551706 -0.24039583 -0.099108905 -0.026841301 0.18325897
-0.6521274 -0.51708454 -0.9659511 -0.17415594 -0.10563934 -0.532799 0.26312637 -0.077183425
0.022468433 0.085659206 -0.10574922 -0.38526788 -0.29746264 -0.28189152 0.43507034 -0.16812852
-0.31413788 -0.0076613794 0.15713951 -0.040335987 0.17734326 0.13946915 0.11034351 -0.007890032
0.06475259 0.017111683 -0.012320779 0.15135652 0.14684704 0.21471182 0.14241943 -0.09482438
-0.021919072 -0.17293203 0.001708832 0.093783975 -0.1540241 0.07577805 -0.19002731 0.39599544
-0.37964988 0.06448337 -0.14502716 -0.15817042 -0.23027964 -0.1552546 0.34058768 0.12099124
-0.09125914 -0.3168881 0.08752813 -0.21914218 0.13867322 -0.40149117 0.08086075 -0.096797384
-0.002838446 0.095536575 0.37040052 -0.041744158 0.15214801 0.325665 0.07960059 0.35676724
-0.043139018 0.12941499 0.04994925 -0.14470176 -0.03901126 0.12948315 0.21403153 0.2923679
00000000: fb69 44bd 7545 e6bd ec0b 68be 24ca 23bd
00000010: 955d 6ebe 3a5d f63d f9bd d33c 2ae4 50be
00000020: 3b49 c83d e384 e8bd c7a2 ce3c 0b43 ac3d
00000030: c662 adbe 1dc7 16bd 1504 bebd fb24 0abe
00000040: ee99 a73c f1e4 05be 677f dabd 07a6 1e3e
00000050: 48b1 52be b5a6 613e e952 f43d 4981 663e
00000060: 99e5 b4be 8b0d 31be 8aa8 0f3e 7a83 483c
00000070: 1c3a 1d3d d464 d8bc 5c22 85be b0ff 203e
00000080: 117a 273d 9842 783e e514 d1bd ae8d 15be
00000090: fcae 24be 2ec7 8dbc a860 83bd 2c6f f73d
000000a0: df96 fc3c 62e6 41be ab64 a43e 5abd a8bc
000000b0: 7923 f0bd cec7 a13d 4e63 9d3d b86b 49be
000000c0: 6820 1ebe 56fb bd3d 709a 26be 4f3f e53b
000000d0: 36fa c1bd 3aa2 88be 498e c63d 2719 ef3d
000000e0: 58c4 cabe d6f8 ffbc 6727 193e 9a98 cb3d
000000f0: 4bb0 8cbd c473 86be 0663 dbbc a31a 98bd
00000100: 265a 3f3d f1c6 863b 920c b73c 868a 31be
00000110: 2bf8 a43e 2ded 423e fdcb 8a3d f568 0abe
00000120: 181f ee3d 5cea 113e 9453 a73d 6f3e 463e
00000130: 0513 25be 8ab7 c6be 33c7 013d a321 e6bd
00000140: c30b ab3d f5d4 62be f6e0 83bd 4cf5 80be
00000150: 5fde 15bd 9115 85be b8b5 863e a3d2 2bbc
00000160: 4a5e f23d fcd9 443d 1814 013d 0f1c 2c3e
00000170: 6bc0 c1bd 0643 4ebd 2dba 0f3e 8404 493e
00000180: 5333 21be dc79 30bc f59e 03be a8fd e1be
00000190: 2672 0bbf 5de9 3ebe e031 40be b614 47be
000001a0: aa26 ffbe 6455 f93d 2015 9e3a 3d6a 013c
000001b0: 50a5 1cbe 41a9 b1bd 0496 34be 2c5a 77be
000001c0: 9dca 3dbd cfc8 15be 4fcf 1fbe 64a9 d1be
000001d0: f40f 06be 63f9 64be 82be f4bc dd69 86be
000001e0: 9cf0 adbe 4c95 31bf 0f69 bfbe 8626 58bf
000001f0: 4ee2 95be 0c06 91be df03 22bf f76a 1fbf
00000200: 3d32 80be b976 dcbe b52b a5be 5361 003e
00000210: 1bf9 c0be 2633 eabe 00a9 24be 1d16 5c3e
00000220: a157 6cbd 6965 a4be 380e fe3d ab71 a9be
00000230: 1c55 0f3f d318 123c 2fb7 65be 6ff9 0f3d
00000240: f8d2 05be 9230 0ebf 3208 a0be 5066 e3be
00000250: b5ce acba a624 c23d 4b7d 16be a85f 62be
00000260: bc23 9a3c 29bc 76be d498 4f3b 19b6 a9be
00000270: dda0 403d ffb0 7dbd 95e4 8dbe ac61 1fbe
00000280: d537 2f3f ef06 b3be b3ce e3be 9a0d d4be
00000290: 276e ba3d 304a 123e 6fe8 74be 6f93 96be
000002a0: 4a3f 5abf a18b e7bd 2f5e a1be 2afb efbd
000002b0: 0262 9fbe 5180 9fbe 4fb7 8abe 8b95 7cbe
000002c0: bd3d cf3d 1e04 d2be c1da 5c3d 034e 97be
000002d0: 532a 76be 9cf9 cabd 4ae2 dbbc 3da8 3b3e
000002e0: d2f1 26bf a75f 04bf 9248 77bf ef55 32be
000002f0: 7059 d8bd 8465 08bf 80b8 863e 5812 9ebd
00000300: b80f b83c 186e af3d 0c93 d8bd d541 c5be
00000310: 064d 98be 1654 90be 8ac1 de3e e229 2cbe
00000320: aed6 a0be 4f0c fbbb 2ee9 203e 5937 25bd
00000330: 7999 353e 00d1 0e3e c7fb e13d 3145 01bc
00000340: 029d 843d cd2d 8c3c 18dd 49bc 34fd 1a3e
00000350: 125f 163e 6add 5b3e 66d6 113e 4933 c2bd
00000360: a08f b3bc 1815 31be e3fa df3a d011 c03d
00000370: 7eb8 1dbe 8631 9b3d 8596 42be eabf ca3e
00000380: 7861 c2be db0f 843d 0082 14be 6df7 21be
00000390: 6dce 6bbe 10fb 1ebe 8261 ae3e 41ca f73d
000003a0: 12e6 babd 283f a2be f341 b33d cf66 60be
000003b0: 5a00 0e3e 4090 cdbe 529a a53d b53d c6bd
000003c0: 3905 3abb aea8 c33d 23a5 bd3e ecfb 2abd
000003d0: b0cc 1b3e 90bd a63e a205 a33d 32aa b63e
000003e0: 8ab2 30bd 5d85 043e 9697 4c3d b32c 14be
000003f0: 45ca 1fbd 3b97 043e 152b 5b3e 3fb1 953e
