exercise-4-rnn/char-rnn.pytorch-master/tinyshakespeare.pt (torch, 568735 bytes, 11 tensors)

weight f4 [100, 100]
00000000: 5cae 4d3e 41b1 c83c a7ec 4cbf 5d27 c03f
00000010: a68a 933f 6f58 303f 825e 323f cce7 963a
00000020: ba81 233f 5293 cfbf a847 323f a02c e23e
00000030: 1212 a3be 4f18 6ebe f93f d23f 690c 21bf
00000040: ce2b 4ebf aae3 2240 07bb bb3d b24b eb3d
00000050: f094 ad3f 0142 76bf 9f68 9dbe ce4a d13f
00000060: b07d 533f c16a 943f 48be 53bf d081 d8bf
00000070: ae10 1f3f 14eb 3e3d 29f4 f8bf a024 17bf
00000080: fb8b 4c3f 42df 39be da76 b5bc 1242 513f
00000090: 0be0 17bf 35f3 d1be acf4 683f 6d53 893e
000000a0: 6024 813f bad3 0a3e 7bf6 0c3f aa36 1cbe
000000b0: b9f2 123f 64df cb3f 22a5 5cbf a11f afbf
000000c0: b23c d83e bcfa c83f 9945 c53b d2da b83e
000000d0: 07c4 e1be 169f e5bd f4ce dfbe 7192 9abf
000000e0: 07c2 bbbd ea0a b73e 1f47 4c3e 4a10 c3be
000000f0: 2e74 d33e 3df9 2f3f 9aa8 c0be 36bb f43f
00000100: 86ff 5ebf 98a0 1fbf 0bbb 633e 2b52 19bf
00000110: 5afe 843f e859 5b3d b08b b73e 5e3a 4dbe
00000120: 2565 ecbe 0f3e 143f f160 1fbe 5b50 e7bd
00000130: 7d40 08be 9f4f 93bf 2b14 90bf a532 87bf
00000140: 3a1f c93f aa10 1240 53dc fd3f 928e 973f
00000150: 431f 033d db3a 00bf b09f 803f 5886 bb3c
00000160: f16f 5d3f de20 0abf b9dc d23e c289 82bf
00000170: 2059 0abf e7d0 393f be1a cdbf a4db 423e
00000180: 9fab aa3e 231d 8dbe 4a3c 073f ce9a 05bf
00000190: 4825 8c3f bbee 8abd 56c1 75bf 0d6b cbbe
000001a0: 2ef2 753f d13e 433e d613 18bf 1cd8 6b3e
000001b0: fb7a 3cbf ff3c 2d3f 7973 57bf 1125 1c3f
000001c0: 80a1 d8be 695f c73e f35a 6fbf d86c 9b3f
000001d0: b16a f63d eb4d d1be b3b1 debf 15a2 6f3f
000001e0: 4752 813d 19c1 9abe 1479 e03e 0dca aebf
000001f0: 3250 b93e 1444 bcbf bfa2 dcbf 1749 88bf
00000200: b336 5dbf c003 a2bf 08f1 56bf 1f40 3cbf
00000210: 7302 77bd 2e62 053f 0dde 843e 5289 073e
00000220: 634b 563f aff2 ba3e 299d 033f 6820 f4bf
00000230: 99c1 0dc0 8ba5 1dc0 e14a ac3f fc1f f7bf
00000240: b844 7dbf c7cd 13c0 92a4 7e3f 3adf d93d
00000250: b0f7 763f 9ee3 4c3f 6f51 603f 1170 703f
00000260: d0bf b7be ff16 953e 7a5b 41c0 4229 8b3d
00000270: 005d 103e a858 bdbc 2201 6d3f 305f 253e
00000280: acd7 0bbf 9e9b 35bf 4003 30bf 4746 453f
00000290: fec0 f3bf e1e4 3e3f 4d40 b43e ed60 99bf
000002a0: a671 373f aefe 9abf 9957 b83f cf71 2a3f
000002b0: 08d5 53bf 5cbf 0940 a80c 36bf 73b0 0ac0
000002c0: 9fee 5f3f 1320 b43e 07a1 76be 00a0 87bb
000002d0: d592 b1be 9e9a 39bf 79ee ab3f 7b32 5ebf
000002e0: e269 a73e f307 04bf 1eaa ea3e aa72 02be
000002f0: 4bf6 c7bf 94a3 9c3f 08aa 20bf 5032 5fbe
00000300: d57c 8fbf b4a8 1ebf 1f1f fb3e befe 2c3f
00000310: 4dc9 a3bf e69e 923f 8bb5 d43f 2615 3dbf
00000320: a6a5 193f 93c8 01be 2fbb 763f c01f 20bf
00000330: cb46 dcbf a9ae c93f 2ef5 563f 76c1 01bf
00000340: d8fb 9abe c823 aabf 6a2b 4a3f f4c3 bbbf
00000350: fecd a5bf 7fbf 9ebf 5b60 45bf 4db2 20bf
00000360: 86fb 64be 7e49 84bf 7aab ef3e 22fe b73f
00000370: eb48 1c3e 7321 5abf 9fae 5dbf b9a6 33bf
00000380: d901 373f 967d 5c3e 181c 63bf e561 223f
00000390: 6b77 afbe 76a6 cabe 2342 913e 9e19 563e
000003a0: 8809 2ebe e4ab 2f3f 0a5e a23f a974 0dbf
000003b0: 8de6 603f 5ac9 a5bf d6be 8bbe a929 073f
000003c0: e04c db3e ea6b 98bf 6d86 2ebf fa35 d4bd
000003d0: 1cbf 78bf 388b 82be dd97 9c3f 6136 07c0
000003e0: 0b4c 353e 4f23 163f d2ae fdbe d231 d3bf
000003f0: d995 99bf fe6e 8d3f 5b72 eabe 012f e33f
0.20086044 0.024498584 -0.800486 1.5012013 1.1526687 0.6888494 0.6967546 0.0011513173
0.6386982 -1.6216834 0.6964059 0.4417467 -0.31849724 -0.2325146 1.6425773 -0.6290956
-0.8053559 2.5451455 0.09166532 0.11489047 1.3561077 -0.96194464 -0.30743882 1.6350954
0.8261366 1.1595079 -0.8271222 -1.6914616 0.62134826 0.046610907 -1.9449512 -0.5904026
0.79901093 -0.18151572 -0.0221514 0.8174144 -0.5932624 -0.41005865 0.9099834 0.2682146
1.0089226 0.1355733 0.550636 -0.15255228 0.57401615 1.5927548 -0.8618947 -1.3681527
0.42233807 1.5701518 0.0060202596 0.36104447 -0.4409487 -0.11211984 -0.4371258 -1.207594
-0.09167867 0.35750514 0.19949006 -0.38098365 0.41299576 0.6873968 -0.37628633 1.9119632
-0.8710865 -0.6235442 0.2223932 -0.59891003 1.0390122 0.05355254 0.3584876 -0.20041797
-0.46170917 0.57907194 -0.15564324 -0.112946235 -0.1330585 -1.1508673 -1.1256155 -1.056233
1.5712655 2.282267 1.9832863 1.1840384 0.032012235 -0.50089806 1.0048733 0.022891209
0.86498934 -0.539564 0.41184023 -1.019829 -0.54042244 0.72584385 -1.6023786 0.19029099
0.33334062 -0.27561292 0.5282637 -0.5218934 1.0948877 -0.067838155 -0.9599813 -0.3973011
0.9607266 0.19066931 -0.5940527 0.23031658 -0.73625153 0.676712 -0.8416057 0.6099406
-0.42310715 0.3893998 -0.9349815 1.2142591 0.120320685 -0.4087976 -1.739798 0.9360669
0.06314521 -0.30225447 0.43842375 -1.3655411 0.36193997 -1.4708276 -1.7237166 -1.0647305
-0.8641159 -1.2657394 -0.83961535 -0.7353534 -0.06030507 0.52102935 0.2595066 0.13235977
0.8370878 0.36513278 0.5141168 -1.907239 -2.2149413 -2.463229 1.3460351 -1.9306636
-0.9893298 -2.3094347 0.99469864 0.1063828 0.9647169 0.80034816 0.8762426 0.93921
-0.3588853 0.29119107 -3.0212083 0.06794979 0.14097977 -0.023113564 0.92579854 0.16149592
-0.54625964 -0.7094058 -0.6875496 0.7706036 -1.9043272 0.7456799 0.35205308 -1.1982704
0.7165779 -1.2108972 1.4401733 0.6657991 -0.82746935 2.1523046 -0.7111306 -2.1670196
0.8747348 0.3518072 -0.24084865 -0.0041389465 -0.34682336 -0.7250155 1.3432151 -0.8679578
0.3269797 -0.5157463 0.45832914 -0.12739053 -1.5622038 1.223742 -0.6275945 -0.21796536
-1.1209971 -0.6197617 0.4904718 0.67576206 -1.2795807 1.1454742 1.6617903 -0.73860395
0.60018384 -0.12674169 0.9637937 -0.62548447 -1.7209104 1.5756427 0.83967865 -0.5068582
-0.30270267 -1.329217 0.78972495 -1.4669175 -1.2953489 -1.240219 -0.7710015 -0.62772065
-0.22361574 -1.0334928 0.46810514 1.437443 0.15262191 -0.8520729 -0.86594576 -0.70176274
0.71487194 0.21532282 -0.8871474 0.63430625 -0.34270796 -0.39580125 0.2837077 0.2090821
-0.16995823 0.6862166 1.2684948 -0.55256134 0.8785179 -1.2952073 -0.27294034 0.52797943
0.42832088 -1.1907933 -0.6817387 -0.10361858 -0.9716661 -0.2549684 1.2233845 -2.112694
0.1770479 0.58647627 -0.4954744 -1.6499579 -1.1998855 1.1049497 -0.4579037 1.774872

weight_ih_l0 f4 [300, 100]
00000000: 3d05 963e 9173 db3e f667 d03e 19ea 85be
00000010: 11a2 0b3e d1b8 ee3d 60a0 a6be b332 14bf
00000020: ded0 14bf 9f32 ec3e 808f 783e c7f4 463e
00000030: f549 aabe b2d3 e93e 2974 e8bd dbd4 c53c
00000040: 2d5d 0a3e c96f f03e 824b 08bf 6f90 c03d
00000050: fadb 483e ff24 9cbe d0dd 94be 52d5 903e
00000060: 81df f3bd 3e58 443b e536 f0be 96e1 813e
00000070: 898b 983e 5e51 b83e 9909 03be fe6e b5bd
00000080: bf12 de3e c924 b9bd f9f2 2a3f fe26 36bf
00000090: a6e4 843e 52b9 2b3c a01f 32bf d60d 4bbd
000000a0: 66c3 253f 3a19 2b3e 2802 343d 72cd d63e
000000b0: ec75 c13d 5eed e43e 47ea aa3d ee57 373e
000000c0: 0540 e23e 7caa 1ebe 8fd2 cf3e 3cbe aebc
000000d0: 520d d4bd f7df 6fbc 39a0 78bf e71e 533f
000000e0: 1030 973d 1211 37be 6bfe 663f 94af 11bd
000000f0: ecfc 223f 63e6 783d 25ed 433e 6631 d23d
00000100: d489 b2bc a663 3cbe 6413 293f 6ec3 18bf
00000110: 00b4 c8be 5552 b5be 7847 81be db23 a83e
00000120: 7bbc a4be 40df a33f c364 1ebf a719 173d
00000130: e221 943e b364 55be 7860 cabd 90e2 a6bc
00000140: 971d d13d 4937 6bbe 48b4 d3be 8e7a d2bd
00000150: 57ea 06bd 40bf ff3e 3396 803f 7a5a 913e
00000160: ab65 97bd 7419 d0be 4ad1 28bf fb3d 15bf
00000170: c0db 38bf 6046 083f d1e1 3b3e 5cf9 3f3e
00000180: ec20 183e ea14 8cba 433c 39be 8140 553e
00000190: 0157 f73e 169d 04be c76c 39bf e243 02be
000001a0: 6da1 4b3d b38a 3bbf f7cc c0be ee1f 7bbe
000001b0: 4e94 46bd 759e f33e 8d36 0d3f bb0a ba3e
000001c0: 28c8 8dbe e8af dabe 19be e13d ba7b f03e
000001d0: eda8 bb3e 46e1 c53e 27aa fb3e 49ef 99be
000001e0: 3078 703d 79fd 363d 43ac efbd cba2 513d
000001f0: de07 623e a0ae c73e 46e4 a8bd f868 933e
00000200: dfc3 e0bd a5ea 973e b63e 1f3f 91bd 11bf
00000210: bada 693e 1911 6e3f 2846 1f3d 1a00 5ebe
00000220: 3375 183f caa4 86be c89b 92be 1b8c 233e
00000230: dd5b 093c 7e36 fe3c 63ed 6b3e d01e 553f
00000240: 9f35 30bf e571 febe c226 7f3e 4101 5cbe
00000250: 9294 033f 8f57 4e3e a234 25be 44f4 ed3e
00000260: b060 0bbf 646b c13e 4738 4f3e 5478 f63e
00000270: d10b 62bf 499a 25be 5722 093f 4e10 42bf
00000280: 0ff1 e8be aec8 56be 145e b03d d96c bcbd
00000290: 45f1 59be 6c7c c33e 4f1c d8be 704c be3e
000002a0: 7893 cb3e df58 19bd ec14 ce3d f9db 5dbe
000002b0: 5885 a0bd 5b1b 01be 7f16 cd3e 1d61 403f
000002c0: 1b11 033f 2156 5d3e cf0c 6bbe f9d1 dfbe
000002d0: b00e a1be 9758 d23d ae62 e23c 6665 e4bd
000002e0: 215c c93e 334d 583d 8554 8cbe 533b fbbe
000002f0: 141b 32bf 7ce2 1e3f 6ebd 483e 7805 57be
00000300: 8159 c33e 677b 03bf e475 413e 176d 7cbe
00000310: 480e 3dbe 8287 513f 2752 c1be ba4a 9bbd
00000320: c4e4 983e 83d0 233f bb7d 193e 3ffd 88bf
00000330: 5328 0dbf e5a4 463d a32b a1bc ff63 73bc
00000340: 5011 2cbf 9551 cabe 0496 e1bc 7bdd dcbe
00000350: a4d7 333e ed45 a8be 2ab6 d43e 1ec9 06bd
00000360: c2b3 abbe 2d30 833d f660 f039 fd9f b4be
00000370: ce9c b93e 67de a7bd 447f d2be 6889 a1be
00000380: 0698 30be 4587 823d beca c23e 9c19 01bf
00000390: 5902 593f 1aad 80be c7ef cf3e 00c7 04bf
000003a0: 798a b03d e4c2 b33f d604 f53c 8d7f 753f
000003b0: 9d50 ddbe c26f 1bbf 030a c4bc 6a4d 28be
000003c0: 1bc0 5c3f 9598 bd3d b5a7 0abf 4cf6 b5be
000003d0: 9a02 4e3e ed5b 183f 2008 453d 67ae 4cbf
000003e0: 1006 ea3e a4a4 76bf c44a 6fbe 9172 613e
000003f0: c436 c13e 9652 a6be 4d5c 163e 32bf 253d
0.29300871 0.42861608 0.40704316 -0.26155165 0.13636042 0.11656345 -0.3254423 -0.5788986
-0.58131206 0.4613237 0.24273491 0.19429313 -0.3325955 0.45669323 -0.11350281 0.024149349
0.13512106 0.46960285 -0.53240216 0.094025485 0.19615164 -0.30496976 -0.2907548 0.2828775
-0.11907864 0.0029959823 -0.4691688 0.2536742 0.29793957 0.35999578 -0.1279663 -0.08859061
0.43373677 -0.09040219 0.66776997 -0.7115325 0.25955695 0.0104811955 -0.69579506 -0.04957374
0.6475128 0.16708842 0.04394737 0.41953617 0.0944632 0.44712347 0.08345466 0.17904636
0.44189468 -0.15494722 0.4059033 -0.021330945 -0.10354103 -0.0146408 -0.9711948 0.8246903
0.07382214 -0.17877606 0.9023196 -0.035567835 0.6366718 0.06076659 0.19133432 0.10263328
-0.021794237 -0.18397388 0.6604521 -0.596732 -0.3919983 -0.35414377 -0.2524984 0.32839856
-0.3217505 1.2802505 -0.618725 0.0368897 0.289321 -0.20839195 -0.09881681 -0.020371705
0.10210722 -0.22970308 -0.4134848 -0.10277282 -0.032938328 0.499506 1.0045837 0.2838934
-0.073924385 -0.4064442 -0.6594435 -0.582977 -0.7221031 0.53232384 0.18347861 0.18747467
0.14856309 -0.0010687385 -0.18089394 0.20825388 0.48308566 -0.12950549 -0.72431606 -0.12721208
0.049714494 -0.73258513 -0.37656376 -0.24523899 -0.048481278 0.4758183 0.5516136 0.36336312
-0.2769177 -0.4271233 0.110225864 0.46969396 0.36652318 0.38648432 0.49153253 -0.30065373
0.05870837 0.044675324 -0.11702778 0.051180642 0.22073314 0.39000416 -0.08246665 0.28791022
-0.109748594 0.29671207 0.62205064 -0.5692988 0.22837344 0.9299484 0.038885266 -0.21679726
0.5955383 -0.262976 -0.28634477 0.15971415 0.008383718 0.031031843 0.23039775 0.8325014
-0.6883182 -0.4969627 0.24917129 -0.21484853 0.51398575 0.20150588 -0.16133359 0.46475422
-0.5444441 0.37777245 0.20236312 0.48138678 -0.8829928 -0.16172136 0.53568023 -0.7580613
-0.45496413 -0.2097499 0.08611694 -0.092004485 -0.21283443 0.38180864 -0.42209098 0.37167692
0.39760947 -0.03743827 0.10062584 -0.21665944 -0.07837933 -0.12608092 0.40056226 0.75148183
0.51197976 0.21614887 -0.22954105 -0.43714884 -0.31456518 0.102708034 0.027634945 -0.11152153
0.393281 0.052807998 -0.27408233 -0.49068698 -0.6957257 0.6206434 0.19603512 -0.2099818
0.38154224 -0.5136017 0.18892628 -0.2465099 -0.18462479 0.81847394 -0.3775799 -0.07582612
0.29862034 0.6399004 0.14989369 -1.0702285 -0.55139655 0.0484971 -0.019674128 -0.014855384
-0.67213917 -0.39515367 -0.027537353 -0.43137726 0.17562729 -0.3286585 0.4154523 -0.032906644
-0.33535582 0.06405673 0.0004584861 -0.3527831 0.36252445 -0.08196717 -0.4111272 -0.31550145
-0.17245492 0.06373457 0.38045305 -0.504297 0.8476921 -0.25132066 0.40612623 -0.5186615
0.086201616 1.4043851 0.029909533 0.9589775 -0.43225566 -0.60717404 -0.023930555 -0.16435781
0.8623063 0.09257618 -0.5416215 -0.35539472 0.2011818 0.5951527 0.04810345 -0.79953617
0.4570775 -0.9634497 -0.23368365 0.2201636 0.37737095 -0.32484883 0.14683647 0.04046554

weight_hh_l0 f4 [300, 100]
00000000: b21f 16be 35eb 743d be48 dcbe b53c abbe
00000010: b0bc 1fbe c2d1 c0be 2900 7ebe 83e9 78be
00000020: eb8a 073f 01bd 183f e719 6cbe 3f65 29be
00000030: d9fe ccbe 7daf c03d 3f9c ebbd f672 ef3e
00000040: 93b8 443e 4708 023f 96a0 e6be cb75 36bf
00000050: cc43 37be b488 ec3e f733 2dbf d10c 543d
00000060: e499 26bd de5d 9abd 9c8e fb3e 814c 09bf
00000070: 2282 833e 2da0 173e cf18 0d3d fb80 153e
00000080: ac3b 86bf a7a2 dbbe 9bf6 90be d070 c83a
00000090: dd7b b93e b57c 3abd 7865 f1be 5ad8 283e
000000a0: a6c3 11bf 9d08 493e 6c93 b73c c905 993e
000000b0: ad62 d7be 75e9 1cbf c961 44bf 63aa 14bf
000000c0: 795e 45bf 74e7 57bf 9b2d 8f3e 3cb7 013e
000000d0: 57d5 473e 7c4c 7cbe 9703 f2be 9024 243e
000000e0: 0c5f 9abe ad14 0e3e c8ab 08bc f5fd e63d
000000f0: 049e 5c3e 938a 1cbe a67a be3e d144 b3be
00000100: 5aad 1fbf fefb 09bf 9cad 94be b14f e33e
00000110: 9020 98bd 774a 3bbf 629a a7bd b49d de3d
00000120: 5f11 853d d7f0 d9bd c58f acbe cb25 e73e
00000130: 9f46 f3be 3477 6b3e 5120 7a3e 6f3c 00bf
00000140: 9a69 3fbe 74d5 253f 8187 99be 6887 313f
00000150: b58e 55be be08 c1be 93cc 3f3e a0f1 103e
00000160: f9e8 8bbd 7372 f43e 3e9e 223e c245 3abf
00000170: 0294 68be 0746 2cbd d177 003f 61bd 1e3e
00000180: 43aa dbbc e428 0c3e a2af 313e 14c8 7c3e
00000190: 0e31 4a3f 76b5 c93e 5b32 b53e 1da5 023f
000001a0: ef4b 2abc 45b2 d0bb f9a0 a1be 9fd4 203f
000001b0: 13b7 333e 4d48 90be 9930 a8be 5cee 61be
000001c0: af54 27bf 6f93 d5be b3bb f03e 5e52 6bbf
000001d0: 06fd 7e3d 9894 373f 38ee 633e 0623 56bf
000001e0: 1e8f 0f3f f598 d4bd b5c5 973e 66ba 40bf
000001f0: 59fe 5d3d e920 9a3d 2698 7e3e 0a7b 41be
00000200: 8fad 873d 494e 9fbf 5013 5b3e 2d03 f9bd
00000210: fbec 573e 26db c93e 79e5 1e3f 37b2 313e
00000220: eee4 b63e 111c 113e f392 293d e3b6 013f
00000230: c2ba 6c3e 3636 00bf 040c c2bb c811 8f3e
00000240: 1b26 a6bd 8c78 643f 3807 d93e fd4f 813e
00000250: 998f 8a3f 92fc 69be a84a ddbc ec66 42be
00000260: f48e a2bc 3c9e 33bf 200e 6d3e 78bc 8d3e
00000270: a166 293e 10d4 e53e 598b a9be 3419 b8be
00000280: e619 763e b13e 26bf 5d49 6fbf b5be 2d3e
00000290: f975 bf3e a7a7 20bf 5c6a 85be f8ff 32bf
000002a0: a42f 6abe 9749 d4bd d9b5 583e 0b68 7cbd
000002b0: 63fc 6a3f e09d 12be 0ca4 823c b074 63be
000002c0: 41d3 f83e 56cd e83d 59c7 85be 2997 bf3d
000002d0: bd49 473d 3db0 cfbe 7364 4dbe f7a3 d1be
000002e0: 1fcb 29be 0c17 d83d 0d26 94be d7f8 d7be
000002f0: 1b48 04be a262 32be 9dac 1c3e ddd5 87bc
00000300: db10 443e 86ff e43c 8357 66bd 8f99 113f
00000310: f517 abbd e62a 543d 654f c93e 9c20 a0be
00000320: 9af3 513f ff68 ee3d f2bc cf3e 869b 58be
00000330: 19c4 44bf 5947 b1be a1ba 95bf 212e ee3e
00000340: 556c 5dbe 8d87 91be 939e fc3e 721b 01bf
00000350: b707 443f 7cb8 dbbd 544e 943c 1001 013f
00000360: f6e5 46be dec8 b43e 79b0 0d3e 9ab2 4b3f
00000370: 20fb f13e 0db3 a5bf e3bb c5be 4d7a 07bf
00000380: 892b aabc 63be e43e 2299 893f 3b38 593f
00000390: 8614 d43e 68ee 65be 3a1b a93e e4c4 313f
000003a0: 2c23 dfbc ec54 ae3e b71e 9abe 939d 1fbf
000003b0: d288 6fbe a456 cabe d483 15bf c8ab 7b3f
000003c0: 4300 a83d 26a0 db3e 53ee d83e 09c5 aebe
000003d0: 9781 3abf 789e e4be 670d 563f b717 dbbc
000003e0: f08d ad3c e89e 23bd 4e77 53be 2f39 9f3e
000003f0: a564 e6bd cdee 2abf 9cf1 37be 9849 4abd
-0.14660528 0.059794623 -0.43024248 -0.33444753 -0.15599322 -0.37660033 -0.24804749 -0.24307828
0.52946347 0.596634 -0.23056756 -0.16542529 -0.40038183 0.09408472 -0.11504411 0.46767396
0.19211034 0.5079388 -0.45044392 -0.7127349 -0.17896956 0.46198046 -0.6765742 0.051770035
-0.040674105 -0.07537435 0.4913224 -0.5363236 0.2568522 0.14807196 0.034447487 0.14599983
-1.048696 -0.4289753 -0.28313145 0.001529241 0.36227313 -0.045529086 -0.47147727 0.16488782
-0.5693916 0.19632192 0.022409163 0.29887226 -0.4206747 -0.6129373 -0.7671171 -0.5807249
-0.7709728 -0.84337544 0.27964482 0.12667555 0.19514976 -0.24638551 -0.47268364 0.16029572
-0.3015064 0.13875075 -0.008341737 0.11278907 0.21544653 -0.15287237 0.37202948 -0.3501344
-0.6237389 -0.53900135 -0.29038703 0.44396737 -0.07428086 -0.731605 -0.08183743 0.10869923
0.06497454 -0.1064164 -0.33703437 0.4514602 -0.47514817 0.22994691 0.2442639 -0.50092214
-0.18692628 0.6477883 -0.29986194 0.6934724 -0.2085522 -0.37701982 0.18730383 0.14154673
-0.068315454 0.47743568 0.15880677 -0.7276269 -0.2271271 -0.04205897 0.50182825 0.1550193
-0.026814586 0.13687474 0.17352155 0.24685699 0.789811 0.39396256 0.3538998 0.5103319
-0.010394081 -0.0063689076 -0.31568125 0.62824434 0.17550306 -0.2818016 -0.32849577 -0.22063583
-0.6536359 -0.41714045 0.47018203 -0.9192256 0.06225302 0.7171111 0.22258842 -0.8364719
0.56077754 -0.10380737 0.29643026 -0.7528442 0.054197643 0.07525808 0.24862728 -0.18894592
0.066249005 -1.2445766 0.21394086 -0.12158809 0.21086495 0.3942501 0.620689 0.1735314
0.35721534 0.14170863 0.041399907 0.5066969 0.23118117 -0.5008272 -0.0059218425 0.27943254
-0.08112737 0.8924644 0.4238832 0.2525634 1.0825073 -0.22850254 -0.027013138 -0.18984574
-0.019843556 -0.7016332 0.2314992 0.27682853 0.16543056 0.44888353 -0.33114126 -0.35956728
0.24033317 -0.6493941 -0.9347132 0.1696728 0.37394693 -0.6275582 -0.26057708 -0.6992183
-0.22869736 -0.10365599 0.2116312 -0.06162266 0.9179136 -0.14318037 0.015947364 -0.22212481
0.48598674 0.1136729 -0.26128653 0.093550034 0.048654307 -0.40564147 -0.2005785 -0.40945408
-0.16581391 0.10551271 -0.2893528 -0.42182037 -0.12918131 -0.17420438 0.15300222 -0.01658147
0.19147055 0.027953874 -0.0562358 0.56874937 -0.08354179 0.051798724 0.39318386 -0.3127488
0.8201233 0.1164112 0.4057384 -0.21153077 -0.7686172 -0.34624746 -1.169758 0.4651957
-0.21623357 -0.2842373 0.49339733 -0.50432503 0.7657427 -0.10728547 0.018103756 0.50392246
-0.1942366 0.353095 0.1383685 0.795694 0.47261906 -1.2945267 -0.3861991 -0.5292099
-0.020772712 0.44676504 1.0749857 0.84851426 0.41421908 -0.22454226 0.33028585 0.69441056
-0.027238451 0.34049165 -0.3010156 -0.62349814 -0.23392037 -0.39519227 -0.5840428 0.9830899
0.08203175 0.4289562 0.42369327 -0.341347 -0.7285399 -0.44652152 0.836142 -0.026744707
0.021185845 -0.039946467 -0.2065098 0.31098315 -0.11249665 -0.6677063 -0.1796326 -0.04938659

bias_ih_l0 f4 [300]
00000000: f085 0bbd f00e 163e 697e b7be 46dc 96be
00000010: 248f d33b 0686 59be 17d2 00be ff5c 02be
00000020: 08fe 00bd e010 35be 4834 c7be 93a4 f7be
00000030: a520 203e 77b6 b6be c02d 2ebf 4ec7 b3be
00000040: a46d bebe 2a8b 4b3b 75d5 c9bd ff9b d6be
00000050: 4ec9 13be f71a 983e 60c1 0bbe 64e0 3b3d
00000060: 9191 fabd 5b20 ea3b 04d9 aebd 3059 4a3c
00000070: 7765 b4be 0867 9fbe 20ae 333e b673 93be
00000080: 4b40 03bf d8e9 d43c 5165 a5bd f79f 6abd
00000090: 0676 2abe 32cd e6bd afbe 80be dd13 8dbe
000000a0: 46ec fabd 36a3 65bd 08c6 343c 8ace f4bd
000000b0: af78 99bd fc7d 99be a546 9abe 8286 e9ba
000000c0: cd76 91be 085b b5bd f354 84be 7c6c 07bd
000000d0: 93af 0fbf f120 42bf dff2 a3bd 2c8b c1be
000000e0: d983 9dbe bee5 7bbd 5b02 f7be 9fac 1bbe
000000f0: 4240 6fbe 8407 55be 0b0e 47bd c994 7dbe
00000100: ad59 d2be 7b1f fabd 9cba e03d 90ed e0bd
00000110: 0733 583b 8b41 bebd 3231 1cbe e5c2 42be
00000120: 04d1 b8be a47e f138 10fb 27be 3d6e 29bd
00000130: e1d5 3ebe 5fe8 13bf 4f02 00bf 56fc 34be
00000140: 212e abbe 7b0b b0bd 7d40 89be da86 863e
00000150: df7c acbd 4f49 97be b2e6 823d 94ba 33bd
00000160: 3c50 abbd a31f 32be 26de cabe 6583 fabe
00000170: fd73 f93d 731a b03e 523b d53c 1b22 f3be
00000180: 2c3b 2fbf 0a4f 15bd 4295 bb3b 8c7d 23bc
00000190: 5eca 78bf 95e9 0dbf 2804 44bf dd15 27bf
000001a0: 32f8 38bf 661c 00bf e104 dabe b54f dabd
000001b0: e05e febe aa6e 05bf c097 24bf 7f96 5cbe
000001c0: 72c0 80bf 43b6 05bf 9eac b3be 701c f9be
000001d0: 9192 e2bd c190 89bf f8b7 6abe adac fcbe
000001e0: 6a24 c5be 9393 f1be 28dc 13bf 819e 0abf
000001f0: 2748 7ebe b691 83be 5476 88bf 57bf b9be
00000200: 6605 11bf 9f09 3ebf c394 4cbf 2d7e 6fbf
00000210: ed9a 27bf 4ffb 3fbe 390d 10bf 2e5a 07bf
00000220: 7d07 13be 3565 37bf cfe4 43bf a0f5 79bf
00000230: e154 e6be 89d7 d8be 544f 5bbe eb48 3ebf
00000240: 6e58 bfbe e064 ebbd a514 323c 1e9e c7be
00000250: 3268 b5be 024f 91be 26bf fdbe acd3 6ebe
00000260: f70b 0fbf 1b85 bcbd cf27 02bf 9690 93be
00000270: fc9d 5dbe 9918 59be a507 8fbe 0bb7 65bf
00000280: b8c6 4dbe b0db 33be 215a 17bf f122 5e3e
00000290: b3f1 b9be ddb5 edbe 5a3a 36bf bee7 aebe
000002a0: e028 69be e56a 3bbf 3037 523e c7d2 98be
000002b0: 5fb3 eabe e1d2 77be 04d9 25bf 6a5c 9dbd
000002c0: b993 72bd 54be a2be 4fc7 e6be f3c8 0fbf
000002d0: 92c6 0fbf 7a3d 6abe 14c3 03bf a9de 71bf
000002e0: c88f 0abf 28d2 babe 27cf 18bf 1665 16bf
000002f0: 1a34 b13d ed48 2ebf 4b28 f1be 1569 c4be
00000300: 8c32 c3be 11b5 9bbe 6601 a8be 69d2 8abf
00000310: 223a 12bf 4fa6 7cbd 0fba 1bbf f2ac 15bf
00000320: fe81 b0bd a556 bf3d e32e e23e b82e 10be
00000330: 9e81 cc3e dd57 ef3e fe32 2dbe da6a e33d
00000340: fb27 d73e 42a1 733e 5bca 93be c7be 563e
00000350: da4b 0b3e 258f a2bd 2b5d 18bd 835a 0a3e
00000360: 3c03 1a3e c409 0f3e 1759 3c3e 6407 553c
00000370: c78a 4bbe 5e4a babc 0c65 b3bc f200 44be
00000380: 2e74 3c3d fb38 94be 976e ccbe 8be9 3a3d
00000390: 6a82 2dbd e960 303e b832 43be cdd0 5d3e
000003a0: c359 c73d cf67 db3d d61c 043c df0b 86be
000003b0: 9340 e0bd 488a 7d3d 4cda 86bd e0c8 c63d
000003c0: 95a8 2d3d 068b fbbd 7b66 c2be dacd bc3e
000003d0: 14eb 8d3d 8b00 823e 52a3 c5bc cb8b 113f
000003e0: 23f1 4a3d 72fd 62be 5635 9e3e 2fe3 9b3d
000003f0: fb21 55be 10cf 873e a9fd 03bd 51f3 6abe
-0.03406328 0.14654136 -0.3583863 -0.2946493 0.0064562727 -0.21242532 -0.12580143 -0.12730788
-0.031492263 -0.17682219 -0.38907075 -0.48367748 0.15637453 -0.35686085 -0.6803856 -0.35112995
-0.37193024 0.003105829 -0.09855167 -0.4191589 -0.1443226 0.29708073 -0.13647985 0.045868292
-0.12234796 0.0071449704 -0.08537486 0.0123503655 -0.35233662 -0.31133294 0.17546892 -0.28799218
-0.5126998 0.025990412 -0.08075965 -0.05728146 -0.16646585 -0.11269607 -0.2514548 -0.27554217
-0.12252097 -0.056063853 0.011033542 -0.11953457 -0.07493722 -0.2997893 -0.30132023 -0.0017816576
-0.2841095 -0.088552535 -0.2584606 -0.033062443 -0.5612728 -0.75831515 -0.08005308 -0.37801492
-0.30764654 -0.061498396 -0.48243985 -0.15202568 -0.23364356 -0.20803648 -0.048597377 -0.24763788
-0.41084042 -0.12213036 0.10973093 -0.109828115 0.00329894 -0.09289845 -0.15253142 -0.19019659
-0.36096966 0.00011515364 -0.16404366 -0.041364897 -0.18636276 -0.57776445 -0.5000352 -0.17674384
-0.3343363 -0.0859594 -0.26807013 0.2627476 -0.08422255 -0.29548118 0.06391658 -0.043879107
-0.08364913 -0.17394881 -0.3962261 -0.4892837 0.12180326 0.3439518 0.026029263 -0.47486958
-0.68449664 -0.03645233 0.00572458 -0.009978663 -0.9718379 -0.5543454 -0.7656884 -0.65267736
-0.72253716 -0.5004333 -0.42581847 -0.10659734 -0.4968176 -0.52121985 -0.6429405 -0.21541785
-1.005873 -0.52231234 -0.35092634 -0.4865451 -0.110631116 -1.07473 -0.22921741 -0.4935049
-0.38504344 -0.47182903 -0.57757807 -0.5414811 -0.24832211 -0.25697106 -1.0661111 -0.36278793
-0.5664886 -0.7423343 -0.7991449 -0.93551904 -0.65470773 -0.1874821 -0.56270176 -0.5287198
-0.14358325 -0.71638805 -0.7652101 -0.9764042 -0.44986632 -0.4235194 -0.2141698 -0.74330014
-0.37372154 -0.1149385 0.01086918 -0.3898782 -0.35431057 -0.2838059 -0.49559897 -0.23322934
-0.5587763 -0.09205075 -0.50841993 -0.28821248 -0.21642298 -0.2120079 -0.2793552 -0.89732426
-0.20095336 -0.17564273 -0.591219 0.21693017 -0.36317214 -0.46427813 -0.7118279 -0.3416118
-0.22769499 -0.73209983 0.20528865 -0.2984831 -0.45839974 -0.24201538 -0.64784265 -0.07683642
-0.05922291 -0.31785834 -0.45073935 -0.56166 -0.5616237 -0.22875014 -0.5146954 -0.9448038
-0.5412564 -0.36488461 -0.5969109 -0.58747995 0.08652516 -0.68080026 -0.47101054 -0.3836142
-0.38124502 -0.3041158 -0.32813567 -1.0845462 -0.57119954 -0.06168204 -0.6083078 -0.5846702
-0.08618544 0.09342698 0.44176397 -0.14080322 0.3994264 0.46746722 -0.16913983 0.11104365
0.4202269 0.23791984 -0.28865322 0.20971213 0.13603154 -0.07937459 -0.037198227 0.1351109
0.15040296 0.13968569 0.1839336 0.01300225 -0.19877158 -0.02274054 -0.021898769 -0.19140986
0.046009235 -0.28949723 -0.39928123 0.04563288 -0.0423607 0.17224468 -0.19062316 0.21661682
0.097339176 0.10713159 0.008063516 -0.26180932 -0.109498166 0.061899453 -0.065846056 0.097062826
0.0423971 -0.12282376 -0.3796881 0.36875802 0.06929603 0.2539104 -0.024125729 0.5685393
0.049546372 -0.22166994 0.30900067 0.07611691 -0.20813744 0.26525164 -0.03222433 -0.2294438

bias_hh_l0 f4 [300]
00000000: 3c7a ba3c aac7 be3d 4182 9dbe cf9a 75be
00000010: 2350 37bd 966d 0bbe 4f01 95bd df75 29be
00000020: 4f82 b33c 2eb8 69be 7a41 c1be d314 efbe
00000030: 0b07 953e 684f eabe ce54 08bf 5d63 eebe
00000040: 4b07 72be 0a48 50bd 7f82 89bd 6bdf 86be
00000050: 504a 81be c948 623e 5a08 76bd 9251 513d
00000060: c5d6 db3c 45c7 b03d ce30 3abe 9c67 85bd
00000070: df6e babe 5f76 74be 9af4 da3d ac1c 50be
00000080: 3eee 05bf 3355 38bd 26c2 c9bd 0884 22bd
00000090: 7998 8ebd 7dfe 92be 2317 42be 2b61 29be
000000a0: cb6a 0abe df27 d33d 0c23 f6bd dff9 27bd
000000b0: d492 acbd 9fde 94be 1051 8bbe 571d 8c3d
000000c0: d705 91be 047f 20be 6241 82be 1734 983d
000000d0: 399c 16bf d1a0 18bf f776 adbd 2032 cfbe
000000e0: 26a3 c1be 16b6 f8bc 5936 02bf 9545 b0bd
000000f0: ebae 91be c90b 63be 01c9 9cbd 5adf 86be
00000100: cd71 f0be ae48 e5bb 18a7 393d 9c05 cabd
00000110: ff6c 473c ae20 12bd f6d8 50be 586a 79be
00000120: 6e79 07bf 36f4 00be 0b81 3ebe c990 703d
00000130: 6aae 9abe 9892 e0be b090 bcbe e67f 03be
00000140: f34d aebe 4448 f1bd ca74 51be 441d be3d
00000150: 26b3 a6bd 8110 4fbe 3b29 c93d 6bc0 5e3b
00000160: 3866 9dbd f484 67be 5fdb 99be 08a1 d3be
00000170: 0786 233e c58f fe3e fdfe 09be 6b96 a8be
00000180: 0a1b 31bf 2ffd 403c e964 95bd 2433 a2bc
00000190: 7633 65bf 94c6 10bf 8755 43bf e0d2 2bbf
000001a0: ddd2 13bf 09b7 d0be fc99 a6be 8525 38be
000001b0: 35a4 b6be 7e78 1dbf 5075 15bf 4055 6cbe
000001c0: 1041 92bf 8512 f4be 2de8 b0be 5e95 05bf
000001d0: b6d5 8abd e44f 86bf d583 6bbe e3ea 0abf
000001e0: dab8 ddbe 4dae f9be 6376 f0be 8e85 02bf
000001f0: e6f9 98be d09d 07be f3f9 89bf a7e5 02bf
00000200: 2b9a 21bf 0d90 33bf 6f46 46bf a0bb 81bf
00000210: 7b05 08bf 2e7e 74be 23e3 31bf 9c0e 0cbf
00000220: 4c45 88be 6ef9 32bf 6485 43bf 0986 82bf
00000230: e61b d9be 66f2 ebbe 3c5c 31be 3d7e 44bf
00000240: 1a1c e6be ceec 07bd 7815 87bd 4625 c7be
00000250: f3dc babe 6455 1dbe c86d f1be fcdf 8bbe
00000260: c367 03bf 2d66 afbd c1e8 0cbf 6b5f c7be
00000270: 3500 51be 24b2 b3be c46f 8bbe d79e 8bbf
00000280: 8307 8abe 4c1c 50be f3ed 24bf b60d 893e
00000290: ba76 b2be de3f f6be 10da 25bf 18e0 a8be
000002a0: 1716 75be bfe0 38bf 619b ac3e b257 c9be
000002b0: 669e e3be d485 8bbe e934 3ebf 2033 6cbd
000002c0: 67d3 9bbd 6ce4 90be f8ef a3be ef6d 0bbf
000002d0: 58b7 e7be e75e 19be a400 05bf b879 4cbf
000002e0: af88 0abf effb 9ebe ef40 0dbf baf6 3abf
000002f0: d318 42bd f135 15bf 49c2 f5be 3335 04bf
00000300: 50ac e4be add1 b3be f153 9abe 117e 72bf
00000310: ad94 08bf bc50 b43d c813 47bf 3e4c 3bbf
00000320: 5abb 453c cd87 cdbe 4f10 0a3f e7f4 59be
00000330: 8797 843e 5fbc 87be ab8b f2be 43c3 773e
00000340: eec7 5d3e 5ba2 8e3e ef03 6ebe 68ab b73e
00000350: 39d9 71be 53f1 be3d 0aa4 863e bd80 813d
00000360: 7cf4 843e c20d 42bd 1d51 873e 2094 e43d
00000370: 5f0c 73be 12c2 62be a18e 00be 82da 6abe
00000380: 33aa 8ebe 321e cfbe ad56 07be 0e79 48be
00000390: 0866 99be 816a 273d 9290 a9be 29a7 853d
000003a0: f5b3 67bd 7457 97bd 4fbe 8dbb 4f65 0cbf
000003b0: e231 12bd 1931 083e fdfd 07be b5f7 063e
000003c0: bfcf 31bd 57a3 77be 47dc b7be 6098 fc3d
000003d0: 2362 87be df20 ba3c ec97 933e a56e 0b3f
000003e0: 345f 273e 90ea 9fbe 49b0 cf3e 9e59 983d
000003f0: 0d89 893d be20 9b3d d0d5 d1be b9bc 913d
0.022763364 0.09315427 -0.30763438 -0.23984836 -0.04475416 -0.13616022 -0.0727564 -0.1654887
0.021912722 -0.22824165 -0.37745267 -0.46695575 0.29106936 -0.45763707 -0.532544 -0.46560183
-0.23635595 -0.05084995 -0.06714343 -0.2634233 -0.25252008 0.22098078 -0.06006656 0.051103182
0.026835809 0.08631758 -0.1818268 -0.065139025 -0.36412713 -0.2387328 0.10691185 -0.20323437
-0.52316654 -0.045003127 -0.09851484 -0.039676696 -0.069626756 -0.28709784 -0.18954138 -0.16540973
-0.13517301 0.10310339 -0.120184034 -0.04100978 -0.08426443 -0.29076096 -0.27210283 0.06841534
-0.28324768 -0.15673453 -0.25440508 0.0743181 -0.58832127 -0.59620386 -0.08469956 -0.4046793
-0.37819785 -0.030360263 -0.5086418 -0.08607022 -0.28453764 -0.22172464 -0.07655526 -0.2634228
-0.46961823 -0.0069971895 0.04532537 -0.09864351 0.012171983 -0.035675697 -0.20395264 -0.24356973
-0.5291966 -0.12593159 -0.18603913 0.058731828 -0.30211192 -0.43861842 -0.36829138 -0.12841758
-0.34043846 -0.11781362 -0.20454708 0.09282926 -0.081396386 -0.2022114 0.09822317 0.0033989202
-0.07685512 -0.22609311 -0.3005018 -0.41333795 0.15969096 0.49719062 -0.13476177 -0.3292726
-0.69181883 0.011779114 -0.07294638 -0.019799776 -0.8953165 -0.56553006 -0.7630238 -0.67118645
-0.57743627 -0.40764645 -0.32539356 -0.17983063 -0.35672155 -0.6151198 -0.5838213 -0.23079395
-1.1426105 -0.4767038 -0.34552136 -0.5218104 -0.067790434 -1.0493131 -0.22999509 -0.5426466
-0.43305093 -0.48765793 -0.46965322 -0.5098504 -0.29878157 -0.13243794 -1.0779403 -0.5113167
-0.63125867 -0.7014168 -0.77451223 -1.0135384 -0.5313336 -0.23876259 -0.6948721 -0.5470979
-0.2661537 -0.6991185 -0.7637541 -1.0197154 -0.42404097 -0.46083373 -0.17320341 -0.76755124
-0.44943315 -0.03318482 -0.06595892 -0.38895625 -0.36496696 -0.15364605 -0.4715407 -0.27319324
-0.513302 -0.0856441 -0.55042654 -0.38939986 -0.20410235 -0.35096848 -0.27233708 -1.0907849
-0.26958856 -0.20323294 -0.6442558 0.26768273 -0.34856206 -0.48095602 -0.6478586 -0.3298347
-0.23934208 -0.72217935 0.33712295 -0.3932472 -0.44456786 -0.2725054 -0.74299484 -0.057665944
-0.07608681 -0.28299272 -0.3201902 -0.5446462 -0.45257068 -0.14977609 -0.519541 -0.7987323
-0.5411481 -0.31051585 -0.55177206 -0.73032725 -0.047386955 -0.58285433 -0.4799979 -0.51643676
-0.44662714 -0.35120907 -0.30142167 -0.9472361 -0.5335186 0.08804461 -0.7776456 -0.7316321
0.012068594 -0.4014267 0.53931135 -0.21284829 0.25896856 -0.26510903 -0.47372183 0.2419558
0.21658298 0.27858242 -0.23243688 0.3587296 -0.2361802 0.09323373 0.26297027 0.06323383
0.25967777 -0.0473764 0.26429072 0.11161065 -0.23735188 -0.22144344 -0.12554409 -0.22934917
-0.27864227 -0.40452725 -0.13216658 -0.19577429 -0.29960656 0.040873054 -0.3311811 0.06526024
-0.056568105 -0.07389727 -0.004325665 -0.54842085 -0.035692103 0.1329998 -0.13280483 0.1318043
-0.043411013 -0.24183403 -0.35910246 0.12333751 -0.2644206 0.022720752 0.28826845 0.54465705
0.16344911 -0.31233644 0.40564182 0.07438968 0.067155935 0.075746045 -0.40983438 0.07116074

weight_ih_l1 f4 [300, 100]
00000000: e2f1 a0be dbb3 3cbd 4b63 673e 2a35 87be
00000010: 2bed 8e3e a0e7 2fbf 78c1 193d a874 c53c
00000020: 48ce 123e 3699 3b3e fcd7 08be 1431 c43e
00000030: b587 f1be 4bb5 263f fe5d c73e c06d 9c3c
00000040: df95 6d3e 67f3 0f3e c41d 9abe 16b6 d3bd
00000050: 43fe c5be 5694 123e 079d 1cbd 6bc3 b8bd
00000060: ed39 b3be e5ef 83be 0da3 573c 2098 aabe
00000070: 65a2 febc d7ca eb3c b1e7 1e3d 96ba 5b3b
00000080: 894b 713f cf8b 513e 2efe 993e 6c02 bd3e
00000090: 4140 953e cd56 203f b2ed 50bf 2cc1 8fbd
000000a0: cf1c f53c d60c 3d3d c760 163c 7d9a 4b3e
000000b0: 5a06 bd3d 90b4 cfbd 724d 95bd cf51 e83d
000000c0: 180a 2dbe 68c5 b8be b4c8 373f d19f 62bd
000000d0: d826 cabe dacf ffbe e60b 4abe b09a 39bd
000000e0: bb78 4ebd 3bef 87bc 6b77 8cbd 1355 6fbf
000000f0: 8162 0abe c929 60be bfdf 253f c25f 6a3e
00000100: b768 c03c df80 d73d 461c c43e e8ba 56bd
00000110: d144 60be e212 3a3f cd73 41be 224b fe3e
00000120: 3ccf 3e3f bc13 9a3d 18f4 9a3e b6bb 8fbe
00000130: 3291 973e 5c29 aabd 392a 1b3e 1e0a 3e3e
00000140: f4b1 88bd c256 febe 6365 793d 13a5 733e
00000150: 2d9d 353e ce50 8abe 3286 9a3e c1c0 acbe
00000160: 0f10 a0be 9145 e2be 4ec1 80bd c520 223e
00000170: b693 fb3c 3a6f 5abf ec70 b7be f76d 4d3d
00000180: b5c4 843d 9dcb 22bd 4231 173f fa4e 8b3e
00000190: dc1b 123c 3bd1 113f 6327 163c 5f94 53bd
000001a0: 241b 07bf bd4e 1ebe 0acb b7be 0d70 b0be
000001b0: 8cd7 9f3e 2a75 89be 99c7 babd 300a 993e
000001c0: 18df 1dbf 0387 c1be f75f 9a3e 132a 2c3f
000001d0: 36f5 63be bf8a 1dbe 420f 57bf d3d1 44bd
000001e0: 3bc2 313f 6daa f1be d435 9abe bd23 ff3e
000001f0: 24ab 1c3f 4b67 d5bc abe6 43be 1a8a 613f
00000200: cf6f ab3d 11b1 0dbf 29e6 003f 1da8 09bf
00000210: 7f21 12be 9754 f5bd 2e9a 54bd e74b cabd
00000220: c82b 78be a7a8 263d 8880 12bf 5fca e2be
00000230: 2972 343f 2353 3abe adf2 dfbe 8051 5bbe
00000240: 319f f1be 9d6d f2bd 5eb5 e4be 6a12 91be
00000250: a4be 0fbf 568f fdbc bb26 e8bd df0a 023f
00000260: 9010 34bf e239 d13e 1fac 99bd 16ca e63e
00000270: 0599 253e ea49 3abe a64a 42be 0154 8ebe
00000280: 1346 223f 11eb c33c 35fd 9a3d fc3a 2d3d
00000290: 02d3 dcbe ce46 d23e a62b 763e b5da 933e
000002a0: 1de6 2cbe 2788 87be c7c0 71be 5503 febe
000002b0: adbd 07bf a16c 0abd 4ebf 5d3e 5907 60bd
000002c0: 969d e2be dd7d d13e d5d9 b3be 2718 aabd
000002d0: 5331 803f 2696 16be c77c a53e f76f e23d
000002e0: 8318 e53e 213d ecbe c0d1 f23e 2e6e e6be
000002f0: 948c e4be 28a0 ce3e 1a93 24bc e321 053d
00000300: 8f2d 79be e0a2 4e3f 784a aabe 57e9 ae3e
00000310: 9523 8d3e e7b7 8ebe 308d c8be 3c73 debe
00000320: b9a1 cfbd 9279 71be 7e0d 623f d056 8a3e
00000330: ea31 12bf a50c c23f a3d0 bfbe f8eb 7d3d
00000340: 4616 0d3f c1ba b7be a6b3 a2be d25d cb3e
00000350: a5d8 b93d 5546 63be 61a1 43be 3359 a93e
00000360: 8cb9 71be 57e2 c63e 5410 88bf 8732 223e
00000370: 5705 063e 0367 be3e 6257 76bd f46f c3bd
00000380: 402b 93be 507c 9d3e c45b 973f 4088 ce3e
00000390: f656 86bf 574d babe e9e2 933f 641a edbe
000003a0: 593a 28bf 65f4 eb3e 3450 e4bd 4051 983e
000003b0: a434 d33d 2bd2 773f 23de 54be 3fe6 aabe
000003c0: 43b3 743f 26b7 533e 1855 b9be 6f1d d5be
000003d0: 856b 35bd 73ed 113f a04e 373f a4b7 4c3e
000003e0: dfd0 983e fa82 a8be 2cec 6fbe 520a 87bf
000003f0: 4e68 803d e686 3cbe 7613 e53d 6150 b9be
-0.31434542 -0.04606996 0.22596471 -0.26407748 0.2791532 -0.68712807 0.03753802 0.024103478
0.14336503 0.18320164 -0.13363642 0.38318694 -0.4717385 0.6512038 0.38938898 0.019095302
0.23201703 0.14057694 -0.30100834 -0.103374645 -0.3867055 0.14314398 -0.03823569 -0.09021648
-0.3500513 -0.25768963 0.013161433 -0.33319187 -0.031083295 0.028783245 0.038795177 0.0033527962
0.9425588 0.20463489 0.30076736 0.3691591 0.29150584 0.6263245 -0.81612694 -0.070192665
0.029920964 0.04615482 0.009178347 0.19883151 0.09229727 -0.101418614 -0.07290162 0.11343729
-0.16898382 -0.3608811 0.71790624 -0.055328194 -0.3948276 -0.49963266 -0.19731101 -0.045313537
-0.050408106 -0.016593566 -0.06858715 -0.9348919 -0.13514139 -0.2189094 0.64794534 0.22888091
0.023487432 0.10522627 0.3830282 -0.05242434 -0.21901251 0.7268506 -0.1889183 0.49666697
0.74534965 0.07523295 0.30264354 -0.280729 0.29602963 -0.0830867 0.15152825 0.18558547
-0.06674567 -0.49675566 0.060887706 0.2379344 0.17735739 -0.27014774 0.30180508 -0.3374081
-0.31262252 -0.441937 -0.0628687 0.15832813 0.030710083 -0.8532597 -0.3582834 0.0501537
0.064828314 -0.039744962 0.59059536 0.27208692 0.008917775 0.56959885 0.009164664 -0.05165517
-0.5277579 -0.15459724 -0.35897094 -0.34460488 0.31219137 -0.26847202 -0.091201015 0.29890585
-0.6166854 -0.37798318 0.3015134 0.672517 -0.2226151 -0.15384959 -0.84007657 -0.048051666
0.69437 -0.47200337 -0.30119193 0.49831954 0.6119864 -0.02605023 -0.19130962 0.8810135
0.08370935 -0.55348307 0.50351197 -0.53772146 -0.1427059 -0.11979025 -0.05190485 -0.098777585
-0.24235451 0.040688183 -0.57227373 -0.44295022 0.70486695 -0.18195777 -0.43739834 -0.21417809
-0.47191766 -0.11837313 -0.44669622 -0.2833436 -0.5615027 -0.030952137 -0.11335512 0.5079784
-0.7033777 0.40864474 -0.075035326 0.45076054 0.16171654 -0.18192258 -0.18973789 -0.27798465
0.63388175 0.0239158 0.07567827 0.04229258 -0.43129736 0.41069645 0.24040088 0.28877798
-0.16884656 -0.26471063 -0.23608695 -0.49611917 -0.530238 -0.033795003 0.21655008 -0.054694507
-0.44260854 0.4091634 -0.3512713 -0.08305388 1.0015053 -0.14705715 0.3232176 0.11056512
0.44745263 -0.46140388 0.47425652 -0.45005935 -0.44638503 0.40356565 -0.010044837 0.03250302
-0.24333785 0.8071728 -0.3325994 0.341624 0.2756621 -0.2787468 -0.39170218 -0.43447292
-0.10138268 -0.23581532 0.8830184 0.27019358 -0.5710741 1.5160109 -0.37463865 0.061992615
0.5511211 -0.3588467 -0.31777686 0.39720017 0.09074525 -0.22194798 -0.1910453 0.33075866
-0.23605937 0.3884456 -1.0629983 0.15839587 0.13087974 0.37187967 -0.06014193 -0.09542838
-0.28743935 0.30758905 1.182488 0.40338326 -1.0495288 -0.3638713 1.1553622 -0.46309197
-0.6571403 0.46084896 -0.1114811 0.2974949 0.10312775 0.96805066 -0.20787863 -0.3337879
0.9558603 0.20675334 -0.36197734 -0.4162402 -0.04429199 0.57002944 0.7160435 0.19991928
0.29846856 -0.32912427 -0.23429936 -1.0550025 0.062698945 -0.18410835 0.111853525 -0.36194137

weight_hh_l1 f4 [300, 100]
00000000: fc88 903e 0128 f73d 062f 1abd db2e 24bf
00000010: a28e 3cbe a149 adbe d0e5 f93e 30d9 a93d
00000020: 99ad 06bf 13bf 56be 28d8 bb3e 9ebc ddbe
00000030: b23e 33bf 6fdc 593d 7ee8 f9be 7887 17bf
00000040: 8eca 383f deeb 3dbe 3cf7 39bf 140a 043e
00000050: a379 853e 2e78 8d3e 6606 be3d 3c18 f83c
00000060: 7396 7f3e cfb4 7bbe e668 82be d4a3 89be
00000070: 26f1 72bd 4f29 823e 0937 9abe 6957 843e
00000080: 95eb a43e 545e cebe 6139 bbbb f8ba 993e
00000090: 379c a4be 3584 60bd 7a30 b3bd 7343 03be
000000a0: f42b 363d ad5d aa3d d39c 433d 0d49 34be
000000b0: 48df 87bc 7092 413e 7565 69be 4c38 d73d
000000c0: e70d a33d 65b2 563e a9a6 283e b3ff e7be
000000d0: 1e29 a43e 06f7 5a3e ba34 b6be dd6d e53d
000000e0: 098d d8be 6333 3d3e fc4c 37be 18a1 71be
000000f0: 1831 aa3e b238 2d3e 4efe 3f3d 8879 233f
00000100: 84bd c33d 57e5 9fbe 8f09 99bd 079e b8bd
00000110: 6bb6 bf3d 570e 6cbe 9fc5 32be 9912 053d
00000120: c626 433e 95cf 80be a34b 4bbe e3d1 34bf
00000130: b034 063f 5df0 653d 672c fbbd 88b1 fd3d
00000140: 47d1 823e 06d1 10bd b433 8bbd 75e1 583e
00000150: 257d 083e ff3e 2d3f d3d0 d93e a462 08bf
00000160: 8bf5 febe d044 23be 7e4c b3bd 2f90 31be
00000170: 1593 27be 0a07 b73e 6f7f 19be b623 81be
00000180: 5c1d b7bd 8536 0ebe cf65 1dbf 6488 a93e
00000190: 9d52 fbbd a027 dc3e 5e6b bebd a29c 703e
000001a0: 0e2f 793c f50e aabe 1721 21bf 63c2 14bd
000001b0: 66dd dd3d f3cf 7e3d 89d0 09bc d6bb 1c3e
000001c0: bdd9 cf3d 3a26 8ebe a1d9 403f a3c7 7abd
000001d0: 2f44 953d 4aed 243d 208d cbbc 1c03 8cbe
000001e0: 5a93 acbe bff2 f73e 2cff c2bd 2649 1cbe
000001f0: 189b bd3d 092f a0bd cbd1 cf3e 909c 87be
00000200: 8348 19be 67c7 9cbc 1ed7 bbbe 717b a23d
00000210: 69ac c9be bbaa 2a3e e04c 8dbe 3156 c23e
00000220: e79f e83e 78c1 3bbe 7c52 83bd 3bed 513e
00000230: 5bff 573e 526f fcbe 093d 67be f5b6 9c3e
00000240: 441f ee3d ded4 57bd f03c 0fbe 0e23 88bc
00000250: 0693 8abe 8e26 10be 67cf 2c3e 6b7a 3a3e
00000260: 0340 08bf 6291 41bd 6a00 a5bd 4e72 833e
00000270: 1512 66be 2e93 e7be db93 5e3d 317c febd
00000280: dc68 283e c824 0dbf 4adc 49be 16c5 933d
00000290: af5d 3b3f 5a75 adbe 455b 50be 6641 a03e
000002a0: ff39 a3be ba75 303d 957f 173f f5c2 043f
000002b0: 101c 393e b5b1 4b3f f19f ac3d aa14 c63e
000002c0: b704 fb3d b9e2 f03e 9a91 3dbd 6516 c23d
000002d0: bb38 f8be 0b04 81be ce5e 20bc a999 18be
000002e0: 125f b4be 5e58 8b3d 6068 d5be b305 853e
000002f0: 0c3a 86be b823 a7bd 3e28 1b3d f51c 0abe
00000300: 02c6 873e 10d0 043e ebe9 813e 96b3 a8be
00000310: 0a8b 0fbe ec49 873d 9c33 cbbe 8a42 173c
00000320: 341d c43e 4d13 5cbe 2594 4b3f ecd0 1fbe
00000330: 1ba9 06bf f510 8abd f219 3a3f 3529 05bf
00000340: 1abc 283d b571 98bd 5c7e db3d 1c1b d83e
00000350: bbc8 32bc 5eb2 193e 967d 8e3d 0d40 713e
00000360: 45a0 7a3e df94 cf3d f9be 923e 564e 4b3f
00000370: b2e5 dc3e fe9c 7f3d f65e e53e dd2a 983f
00000380: b034 f7bd 71c2 8bbe b6d4 0cbf 34aa 413f
00000390: 70e2 a63c 28ff a7bf c75a 07bf 8907 11bf
000003a0: 4a79 40bd 5657 ddbe 4443 27bf 7144 bbbd
000003b0: cd04 263c 73c0 08bd d71d 08be 62ad 81bf
000003c0: f37b b3bd c1ad 8fbd 1bd8 743b 2f1c 29be
000003d0: 4c60 88bd 20ef 913e d116 d73d b56d 00bf
000003e0: b3cb 14bf d520 e73e a70e d8be 08e7 39bf
000003f0: 5e78 08bf 0278 373d 10ec a83e cba3 2a3e
0.2822951 0.12068177 -0.0376425 -0.64133996 -0.18413785 -0.33845237 0.48808146 0.08293378
-0.5260864 -0.20971327 0.36688352 -0.43307966 -0.7001754 0.053188737 -0.4881019 -0.59191084
0.72184074 -0.18547007 -0.72642875 0.1289447 0.26069364 0.27630752 0.09278564 0.030284993
0.24959736 -0.24580692 -0.25470656 -0.26882803 -0.05931201 0.2542214 -0.30120113 0.2584794
0.32210985 -0.40306342 -0.005713627 0.30025458 -0.32150432 -0.054813582 -0.087494805 -0.12818699
0.04447551 0.083186485 0.04775698 -0.17605992 -0.016585961 0.18903518 -0.22792609 0.10508785
0.07961636 0.2096649 0.16469826 -0.4531227 0.3206262 0.21383294 -0.35587102 0.112025954
-0.422951 0.18476634 -0.17900461 -0.23596609 0.3324058 0.16916159 0.046873383 0.63857317
0.095576316 -0.3122966 -0.07472526 -0.09014516 0.09360965 -0.23052345 -0.17458199 0.03248844
0.1905776 -0.25158373 -0.19853072 -0.7063276 0.52424145 0.05613743 -0.122643284 0.12387377
0.2555029 -0.03535559 -0.06796971 0.21179755 0.13328989 0.6767425 0.42542133 -0.53275514
-0.4979671 -0.15944219 -0.08754824 -0.17340158 -0.16364701 0.35747558 -0.14990018 -0.25222558
-0.08941147 -0.13887985 -0.6148347 0.3311187 -0.122716166 0.4299898 -0.092978224 0.2349725
0.015208973 -0.33214536 -0.62941116 -0.036318194 0.10833244 0.062210035 -0.008411535 0.15306029
0.10148952 -0.2776354 0.75332075 -0.061225545 0.072883956 0.04026536 -0.024847567 -0.27346122
-0.3370617 0.48427388 -0.095213264 -0.15262279 0.092580974 -0.07821471 0.40589747 -0.26486635
-0.14969067 -0.019138051 -0.3668756 0.07933701 -0.3938935 0.16666691 -0.27597713 0.37956384
0.45434496 -0.18335521 -0.06412217 0.20500652 0.21093504 -0.4930368 -0.22581877 0.30608335
0.11627057 -0.05269324 -0.1398809 -0.016618278 -0.27065295 -0.14077207 0.16875993 0.18210761
-0.53222674 -0.04725779 -0.080567196 0.25673145 -0.22467835 -0.45229477 0.054340225 -0.124260314
0.1644625 -0.5513425 -0.1971294 0.072153255 0.73189825 -0.33878595 -0.20347317 0.31299895
-0.31880185 0.043081023 0.5917905 0.5185998 0.18077111 0.79568034 0.08428944 0.3868764
0.12256759 0.47047976 -0.046281435 0.09476928 -0.48480782 -0.25198397 -0.009788228 -0.14902367
-0.35228783 0.06803964 -0.41681194 0.2598091 -0.2621616 -0.0816111 0.037880175 -0.13487609
0.26518255 0.12969995 0.25373778 -0.32949513 -0.14017883 0.06605896 -0.39687812 0.009232173
0.3830353 -0.21491738 0.79522926 -0.15607041 -0.52601784 -0.067415155 0.7269584 -0.52016
0.041195013 -0.07443563 0.107174605 0.42208183 -0.010912116 0.15009448 0.06957547 0.2355959
0.244752 0.10135817 0.28661326 0.79416406 0.43143994 0.06240558 0.44799012 1.1888081
-0.12070596 -0.27296785 -0.5501207 0.75650334 0.020371646 -1.3124743 -0.5287289 -0.5665212
-0.04699067 -0.43230695 -0.65337014 -0.091439135 0.0101329805 -0.03338666 -0.13292633 -1.0131037
-0.08763876 -0.07015563 0.0037360254 -0.16514657 -0.06658992 0.2850275 0.10502399 -0.501674
-0.5812332 0.45142236 -0.4219868 -0.7261815 -0.53308666 0.044792183 0.329926 0.16664045

bias_ih_l1 f4 [300]
00000000: 7a6e 693e b17e 21be 2ed5 3e3e 94d2 51bd
00000010: ab32 053e 1c97 903d 7e33 55be dc5e 223e
00000020: f7d4 8e3a d4f3 103e 3581 aebe 9e0a ac3d
00000030: ab50 5ebe 0c76 06be 2503 8dbe 2016 4fbe
00000040: 80cc fd3d 4c75 cb3b 38b7 92be 8b2f 473e
00000050: 3ab7 f33e b1e5 213e 6c57 203e a373 39bd
00000060: 82bb 0d3e b7f4 9b3d 01db 8d3d 2e5d 8dbd
00000070: 0a08 a5be 91fd 733d b3f3 2e3d db49 953d
00000080: 145a 4bbe 62e2 c33e 5e80 0ebe c65d a63d
00000090: 99c4 a4be 6b23 c03d 22f9 e4bd 0ee0 ecbd
000000a0: a181 15bd 7c8b 6ebe 316d 483b 8c4e c63b
000000b0: aef6 093e 4ac7 9a3e b7d1 c3bd e5ab 983c
000000c0: 1fa6 573d 3b41 61bd 5aa5 f23e 85e2 433d
000000d0: c968 29bd 2637 8d3e f89c edbd b8f3 413e
000000e0: 7aae edbd d0d8 db3d 0cd6 66be 2877 243e
000000f0: f35c d3bd b042 6dbd bfba 223e c387 81bd
00000100: 134f b6bb c4d0 563d 2ba2 043e 3100 743d
00000110: 5cf1 483e 2b31 123e 3045 abbe 2ba2 72bd
00000120: 4999 2bbc 275a 173e 7f96 c13e 1fde 3a3e
00000130: c13e acbd f98b 08be eb63 503e cf07 53be
00000140: 00f4 813e 846e de3d 0595 a4bd 2c14 693e
00000150: fa15 05bd 6f65 a1bd 7bac 72be 5543 8bbe
00000160: cef5 eebd 4520 a83c 1cb5 2dbe 2231 56bd
00000170: 3956 943c 47b2 7f3d 7ebf c9bd b37a 583d
00000180: d795 7d3d d540 223e bd17 56be ef3a b13e
00000190: fc4d 02bf a0d9 2b3f 9939 51bf 031d 11bf
000001a0: dc88 643c d7c9 c53e 59b4 87be 923b 403e
000001b0: 8b46 09bf a881 2bbe b0f2 1bbf 88b9 08bf
000001c0: 15cc 76be b876 b3be 861b 23bf ed17 20bf
000001d0: c7fa bbbe 74d1 6c3b 3bab f1be 7db0 bebd
000001e0: 65b4 64bd 539b 043e aef5 71bf 0e73 cdbe
000001f0: 489f cc3e e451 2dbe 8c53 19bf e582 9fbe
00000200: 84d6 71bd 04dc e13e 35a9 eebd bd63 2cbe
00000210: 2903 4cbd 0177 5ebf 93f9 29bf 7ca4 c9be
00000220: 6d10 a4be 1305 01bf 7064 44be 31a8 a8be
00000230: dd27 c6bb 0f83 f8be 88d6 1abf b828 a1bf
00000240: c85b 8bbe c017 17bf 8c9a 4d3e d38c 2d3f
00000250: 1ebd 88bd b15b 2e3e 2e37 efbe a1b9 9e3c
00000260: b8ab 813d 3ef8 a63d 714e 94bd e1b0 fdbe
00000270: 94d4 95bd 98d1 92be b1ec 66be d5bc b4be
00000280: 520c a8be 3f0a 183e 386d 893d deba aebd
00000290: f4e3 07bf 4e63 d2bb 7c5d 61bf 2a1e bcbe
000002a0: b2f3 12bd dabc b7be 9fd2 95be 2026 8fbe
000002b0: aa7f 20bf ef0a a1be d89b 11bf 6bed 0f3f
000002c0: 26d7 0cbf d161 7cbe f418 41be e479 7cbc
000002d0: 64e7 10bf 05aa 8d3e d701 ea3b 797a 2abf
000002e0: 3f21 fdbd c4f3 f9be 8c9b a4be 5a1a 12be
000002f0: cd8a 6b3d dff0 c13b d87a 3e3f e4be 06bf
00000300: c674 30bd 2da0 babc 1865 7dbf e045 30bf
00000310: 654e f9bd 6c1c 4d3f 4611 d8be 21d2 a4be
00000320: 2141 8f3e bcc7 6a3d b2a3 9b3e 3851 693c
00000330: 70b4 50be 35d2 34be b995 6d3d 47c7 2dbe
00000340: d682 a13b 97b2 8ebe b4ca 193e 4bd6 86bd
00000350: 2692 a2be d836 903e 95de 99be e3d9 14bd
00000360: 6d9b f03d 9aa9 e43c c600 6abe 7f02 053e
00000370: 9c31 b03e 6701 5d3c 84c1 a23d fead b7bd
00000380: d947 8b3e 24bb 27be e154 d5be 9cf6 c53d
00000390: ffab 92be d560 b8bd 0b59 203e b7cd 8ebe
000003a0: af05 0e3d d254 97be 22b4 653e 03dd 47be
000003b0: 8f50 2cbe 2af3 66be 4672 37be b932 3ebe
000003c0: 653b a93c 2049 d7bd 2437 02be 54b2 52be
000003d0: b6e5 2dbe 90a5 2e3e acd8 93be 4459 7fbe
000003e0: 3a9c 7a3c a0cb 833e da84 81be f7f1 75be
000003f0: cd6e 683d 5a3c 8a3e fc1c a53d fb45 203e
0.2279605 -0.15770985 0.18636009 -0.051226214 0.1300761 0.07060072 -0.20820424 0.15856498
0.0010897209 0.14155513 -0.34082952 0.084004626 -0.2171046 -0.13130969 -0.27541462 -0.20223284
0.12392521 0.0062090512 -0.2865541 0.1945173 0.47600728 0.15810277 0.15658349 -0.045276295
0.1384106 0.07615035 0.06926537 -0.06902538 -0.32232696 0.05956799 0.04271288 0.072894774
-0.19858581 0.38258654 -0.13916156 0.081233546 -0.32181242 0.093817554 -0.11180331 -0.115661725
-0.036500577 -0.23295397 0.0030582661 0.006051844 0.13473007 0.3023017 -0.09561484 0.018636653
0.05264866 -0.05499385 0.47391778 0.047823448 -0.041359697 0.27581137 -0.11602205 0.18940628
-0.116055444 0.10734713 -0.2254259 0.1606108 -0.10320463 -0.057924926 0.1589155 -0.063247226
-0.0055636256 0.05244519 0.12952487 0.059570495 0.19623321 0.14276569 -0.33451223 -0.059236687
-0.010473558 0.14780484 0.37810132 0.18248795 -0.08410407 -0.13334645 0.20350616 -0.20608447
0.2538147 0.10860923 -0.08036236 0.22761601 -0.03249166 -0.07880675 -0.23698609 -0.27199808
-0.11667977 0.0205232 -0.16963619 -0.05229295 0.01810752 0.062425878 -0.09850977 0.05285139
0.061910477 0.15845044 -0.20907493 0.34615275 -0.50900245 0.67128944 -0.8172851 -0.56684893
0.013948645 0.38630554 -0.26504782 0.18772724 -0.53623265 -0.16748679 -0.60917187 -0.534081
-0.24101289 -0.35051513 -0.6371387 -0.6253651 -0.36714765 0.0036135586 -0.4720095 -0.09311006
-0.0558361 0.12949876 -0.945155 -0.40126842 0.39965272 -0.1692577 -0.5989311 -0.31154552
-0.05904247 0.4411317 -0.116533674 -0.16834922 -0.0498077 -0.86900336 -0.66396445 -0.39383304
-0.32043782 -0.5039837 -0.19178939 -0.3294082 -0.0060472325 -0.4853749 -0.604836 -1.2590551
-0.2721846 -0.59020615 0.20078486 0.67793006 -0.06676696 0.17027165 -0.46721786 0.019375624
0.06331581 0.08152817 -0.07241524 -0.4954901 -0.07315937 -0.28675532 -0.22551228 -0.35300317
-0.328219 0.14847659 0.06710285 -0.08531736 -0.53082204 -0.0064205294 -0.8803327 -0.36741763
-0.035876937 -0.3588627 -0.29262254 -0.27958775 -0.626948 -0.31453654 -0.56878424 0.56221646
-0.5501579 -0.24646689 -0.18857175 -0.01540992 -0.56603074 0.27668777 0.0071413326 -0.6659313
-0.12359857 -0.4881879 -0.32149923 -0.14267865 0.057505418 0.0059186067 0.74406195 -0.52635026
-0.043080114 -0.022781456 -0.9898238 -0.6885662 -0.12173156 0.80121493 -0.4220068 -0.32191566
0.27979377 0.057319388 0.30398327 0.014240555 -0.20381331 -0.17658313 0.058004115 -0.1697055
0.004928927 -0.27870628 0.15018731 -0.06583842 -0.31752127 0.28166842 -0.3005263 -0.036340605
0.11748395 0.027912904 -0.22851858 0.12989233 0.3441285 0.013489104 0.079470664 -0.08968733
0.27203253 -0.16379982 -0.4166632 0.09666178 -0.28646848 -0.09002844 0.15658967 -0.27891323
0.03467339 -0.295569 0.22431996 -0.19517903 -0.16827606 -0.22553697 -0.17914686 -0.18574037
0.020658204 -0.10511994 -0.12716347 -0.2057584 -0.16982159 0.17055345 -0.28876245 -0.24936396
0.015296036 0.2574129 -0.2529667 -0.24018084 0.056746293 0.2699917 0.08062169 0.15651695
